node {
  name: "conv2d_1_input"
  op: "Placeholder"
  attr {
    key: "dtype"
    value {
      type: DT_DOUBLE
    }
  }
  attr {
    key: "shape"
    value {
      shape {
        dim {
          size: -1
        }
        dim {
          size: 13
        }
        dim {
          size: 13
        }
        dim {
          size: 1
        }
      }
    }
  }
}
node {
  name: "conv2d_1/random_uniform/shape"
  op: "Const"
  attr {
    key: "dtype"
    value {
      type: DT_INT32
    }
  }
  attr {
    key: "value"
    value {
      tensor {
        dtype: DT_INT32
        tensor_shape {
          dim {
            size: 4
          }
        }
        tensor_content: "\002\000\000\000\002\000\000\000\001\000\000\000d\000\000\000"
      }
    }
  }
}
node {
  name: "conv2d_1/random_uniform/min"
  op: "Const"
  attr {
    key: "dtype"
    value {
      type: DT_FLOAT
    }
  }
  attr {
    key: "value"
    value {
      tensor {
        dtype: DT_FLOAT
        tensor_shape {
        }
        float_val: -0.12186667323112488
      }
    }
  }
}
node {
  name: "conv2d_1/random_uniform/max"
  op: "Const"
  attr {
    key: "dtype"
    value {
      type: DT_FLOAT
    }
  }
  attr {
    key: "value"
    value {
      tensor {
        dtype: DT_FLOAT
        tensor_shape {
        }
        float_val: 0.12186667323112488
      }
    }
  }
}
node {
  name: "conv2d_1/random_uniform/RandomUniform"
  op: "RandomUniform"
  input: "conv2d_1/random_uniform/shape"
  attr {
    key: "T"
    value {
      type: DT_INT32
    }
  }
  attr {
    key: "dtype"
    value {
      type: DT_FLOAT
    }
  }
  attr {
    key: "seed"
    value {
      i: 87654321
    }
  }
  attr {
    key: "seed2"
    value {
      i: 9564837
    }
  }
}
node {
  name: "conv2d_1/random_uniform/sub"
  op: "Sub"
  input: "conv2d_1/random_uniform/max"
  input: "conv2d_1/random_uniform/min"
  attr {
    key: "T"
    value {
      type: DT_FLOAT
    }
  }
}
node {
  name: "conv2d_1/random_uniform/mul"
  op: "Mul"
  input: "conv2d_1/random_uniform/RandomUniform"
  input: "conv2d_1/random_uniform/sub"
  attr {
    key: "T"
    value {
      type: DT_FLOAT
    }
  }
}
node {
  name: "conv2d_1/random_uniform"
  op: "Add"
  input: "conv2d_1/random_uniform/mul"
  input: "conv2d_1/random_uniform/min"
  attr {
    key: "T"
    value {
      type: DT_FLOAT
    }
  }
}
node {
  name: "conv2d_1/kernel"
  op: "VariableV2"
  attr {
    key: "container"
    value {
      s: ""
    }
  }
  attr {
    key: "dtype"
    value {
      type: DT_FLOAT
    }
  }
  attr {
    key: "shape"
    value {
      shape {
        dim {
          size: 2
        }
        dim {
          size: 2
        }
        dim {
          size: 1
        }
        dim {
          size: 100
        }
      }
    }
  }
  attr {
    key: "shared_name"
    value {
      s: ""
    }
  }
}
node {
  name: "conv2d_1/kernel/Assign"
  op: "Assign"
  input: "conv2d_1/kernel"
  input: "conv2d_1/random_uniform"
  attr {
    key: "T"
    value {
      type: DT_FLOAT
    }
  }
  attr {
    key: "_class"
    value {
      list {
        s: "loc:@conv2d_1/kernel"
      }
    }
  }
  attr {
    key: "use_locking"
    value {
      b: true
    }
  }
  attr {
    key: "validate_shape"
    value {
      b: true
    }
  }
}
node {
  name: "conv2d_1/kernel/read"
  op: "Identity"
  input: "conv2d_1/kernel"
  attr {
    key: "T"
    value {
      type: DT_FLOAT
    }
  }
  attr {
    key: "_class"
    value {
      list {
        s: "loc:@conv2d_1/kernel"
      }
    }
  }
}
node {
  name: "conv2d_1/Const"
  op: "Const"
  attr {
    key: "dtype"
    value {
      type: DT_FLOAT
    }
  }
  attr {
    key: "value"
    value {
      tensor {
        dtype: DT_FLOAT
        tensor_shape {
          dim {
            size: 100
          }
        }
        float_val: 0.0
      }
    }
  }
}
node {
  name: "conv2d_1/bias"
  op: "VariableV2"
  attr {
    key: "container"
    value {
      s: ""
    }
  }
  attr {
    key: "dtype"
    value {
      type: DT_FLOAT
    }
  }
  attr {
    key: "shape"
    value {
      shape {
        dim {
          size: 100
        }
      }
    }
  }
  attr {
    key: "shared_name"
    value {
      s: ""
    }
  }
}
node {
  name: "conv2d_1/bias/Assign"
  op: "Assign"
  input: "conv2d_1/bias"
  input: "conv2d_1/Const"
  attr {
    key: "T"
    value {
      type: DT_FLOAT
    }
  }
  attr {
    key: "_class"
    value {
      list {
        s: "loc:@conv2d_1/bias"
      }
    }
  }
  attr {
    key: "use_locking"
    value {
      b: true
    }
  }
  attr {
    key: "validate_shape"
    value {
      b: true
    }
  }
}
node {
  name: "conv2d_1/bias/read"
  op: "Identity"
  input: "conv2d_1/bias"
  attr {
    key: "T"
    value {
      type: DT_FLOAT
    }
  }
  attr {
    key: "_class"
    value {
      list {
        s: "loc:@conv2d_1/bias"
      }
    }
  }
}
node {
  name: "conv2d_1/Cast"
  op: "Cast"
  input: "conv2d_1_input"
  attr {
    key: "DstT"
    value {
      type: DT_FLOAT
    }
  }
  attr {
    key: "SrcT"
    value {
      type: DT_DOUBLE
    }
  }
}
node {
  name: "conv2d_1/convolution/dilation_rate"
  op: "Const"
  attr {
    key: "dtype"
    value {
      type: DT_INT32
    }
  }
  attr {
    key: "value"
    value {
      tensor {
        dtype: DT_INT32
        tensor_shape {
          dim {
            size: 2
          }
        }
        tensor_content: "\001\000\000\000\001\000\000\000"
      }
    }
  }
}
node {
  name: "conv2d_1/convolution"
  op: "Conv2D"
  input: "conv2d_1/Cast"
  input: "conv2d_1/kernel/read"
  attr {
    key: "T"
    value {
      type: DT_FLOAT
    }
  }
  attr {
    key: "data_format"
    value {
      s: "NHWC"
    }
  }
  attr {
    key: "dilations"
    value {
      list {
        i: 1
        i: 1
        i: 1
        i: 1
      }
    }
  }
  attr {
    key: "padding"
    value {
      s: "VALID"
    }
  }
  attr {
    key: "strides"
    value {
      list {
        i: 1
        i: 1
        i: 1
        i: 1
      }
    }
  }
  attr {
    key: "use_cudnn_on_gpu"
    value {
      b: true
    }
  }
}
node {
  name: "conv2d_1/BiasAdd"
  op: "BiasAdd"
  input: "conv2d_1/convolution"
  input: "conv2d_1/bias/read"
  attr {
    key: "T"
    value {
      type: DT_FLOAT
    }
  }
  attr {
    key: "data_format"
    value {
      s: "NHWC"
    }
  }
}
node {
  name: "conv2d_1/Relu"
  op: "Relu"
  input: "conv2d_1/BiasAdd"
  attr {
    key: "T"
    value {
      type: DT_FLOAT
    }
  }
}
node {
  name: "average_pooling2d_1/AvgPool"
  op: "AvgPool"
  input: "conv2d_1/Relu"
  attr {
    key: "T"
    value {
      type: DT_FLOAT
    }
  }
  attr {
    key: "data_format"
    value {
      s: "NHWC"
    }
  }
  attr {
    key: "ksize"
    value {
      list {
        i: 1
        i: 2
        i: 2
        i: 1
      }
    }
  }
  attr {
    key: "padding"
    value {
      s: "VALID"
    }
  }
  attr {
    key: "strides"
    value {
      list {
        i: 1
        i: 2
        i: 2
        i: 1
      }
    }
  }
}
node {
  name: "dropout_1/Identity"
  op: "Identity"
  input: "average_pooling2d_1/AvgPool"
  attr {
    key: "T"
    value {
      type: DT_FLOAT
    }
  }
}
node {
  name: "flatten_1/Shape"
  op: "Shape"
  input: "dropout_1/Identity"
  attr {
    key: "T"
    value {
      type: DT_FLOAT
    }
  }
  attr {
    key: "out_type"
    value {
      type: DT_INT32
    }
  }
}
node {
  name: "flatten_1/strided_slice/stack"
  op: "Const"
  attr {
    key: "dtype"
    value {
      type: DT_INT32
    }
  }
  attr {
    key: "value"
    value {
      tensor {
        dtype: DT_INT32
        tensor_shape {
          dim {
            size: 1
          }
        }
        int_val: 1
      }
    }
  }
}
node {
  name: "flatten_1/strided_slice/stack_1"
  op: "Const"
  attr {
    key: "dtype"
    value {
      type: DT_INT32
    }
  }
  attr {
    key: "value"
    value {
      tensor {
        dtype: DT_INT32
        tensor_shape {
          dim {
            size: 1
          }
        }
        int_val: 0
      }
    }
  }
}
node {
  name: "flatten_1/strided_slice/stack_2"
  op: "Const"
  attr {
    key: "dtype"
    value {
      type: DT_INT32
    }
  }
  attr {
    key: "value"
    value {
      tensor {
        dtype: DT_INT32
        tensor_shape {
          dim {
            size: 1
          }
        }
        int_val: 1
      }
    }
  }
}
node {
  name: "flatten_1/strided_slice"
  op: "StridedSlice"
  input: "flatten_1/Shape"
  input: "flatten_1/strided_slice/stack"
  input: "flatten_1/strided_slice/stack_1"
  input: "flatten_1/strided_slice/stack_2"
  attr {
    key: "Index"
    value {
      type: DT_INT32
    }
  }
  attr {
    key: "T"
    value {
      type: DT_INT32
    }
  }
  attr {
    key: "begin_mask"
    value {
      i: 0
    }
  }
  attr {
    key: "ellipsis_mask"
    value {
      i: 0
    }
  }
  attr {
    key: "end_mask"
    value {
      i: 1
    }
  }
  attr {
    key: "new_axis_mask"
    value {
      i: 0
    }
  }
  attr {
    key: "shrink_axis_mask"
    value {
      i: 0
    }
  }
}
node {
  name: "flatten_1/Const"
  op: "Const"
  attr {
    key: "dtype"
    value {
      type: DT_INT32
    }
  }
  attr {
    key: "value"
    value {
      tensor {
        dtype: DT_INT32
        tensor_shape {
          dim {
            size: 1
          }
        }
        int_val: 0
      }
    }
  }
}
node {
  name: "flatten_1/Prod"
  op: "Prod"
  input: "flatten_1/strided_slice"
  input: "flatten_1/Const"
  attr {
    key: "T"
    value {
      type: DT_INT32
    }
  }
  attr {
    key: "Tidx"
    value {
      type: DT_INT32
    }
  }
  attr {
    key: "keep_dims"
    value {
      b: false
    }
  }
}
node {
  name: "flatten_1/stack/0"
  op: "Const"
  attr {
    key: "dtype"
    value {
      type: DT_INT32
    }
  }
  attr {
    key: "value"
    value {
      tensor {
        dtype: DT_INT32
        tensor_shape {
        }
        int_val: -1
      }
    }
  }
}
node {
  name: "flatten_1/stack"
  op: "Pack"
  input: "flatten_1/stack/0"
  input: "flatten_1/Prod"
  attr {
    key: "N"
    value {
      i: 2
    }
  }
  attr {
    key: "T"
    value {
      type: DT_INT32
    }
  }
  attr {
    key: "axis"
    value {
      i: 0
    }
  }
}
node {
  name: "flatten_1/Reshape"
  op: "Reshape"
  input: "dropout_1/Identity"
  input: "flatten_1/stack"
  attr {
    key: "T"
    value {
      type: DT_FLOAT
    }
  }
  attr {
    key: "Tshape"
    value {
      type: DT_INT32
    }
  }
}
node {
  name: "dense_1/random_uniform/shape"
  op: "Const"
  attr {
    key: "dtype"
    value {
      type: DT_INT32
    }
  }
  attr {
    key: "value"
    value {
      tensor {
        dtype: DT_INT32
        tensor_shape {
          dim {
            size: 2
          }
        }
        tensor_content: "\020\016\000\000\200\000\000\000"
      }
    }
  }
}
node {
  name: "dense_1/random_uniform/min"
  op: "Const"
  attr {
    key: "dtype"
    value {
      type: DT_FLOAT
    }
  }
  attr {
    key: "value"
    value {
      tensor {
        dtype: DT_FLOAT
        tensor_shape {
        }
        float_val: -0.04011785238981247
      }
    }
  }
}
node {
  name: "dense_1/random_uniform/max"
  op: "Const"
  attr {
    key: "dtype"
    value {
      type: DT_FLOAT
    }
  }
  attr {
    key: "value"
    value {
      tensor {
        dtype: DT_FLOAT
        tensor_shape {
        }
        float_val: 0.04011785238981247
      }
    }
  }
}
node {
  name: "dense_1/random_uniform/RandomUniform"
  op: "RandomUniform"
  input: "dense_1/random_uniform/shape"
  attr {
    key: "T"
    value {
      type: DT_INT32
    }
  }
  attr {
    key: "dtype"
    value {
      type: DT_FLOAT
    }
  }
  attr {
    key: "seed"
    value {
      i: 87654321
    }
  }
  attr {
    key: "seed2"
    value {
      i: 4072365
    }
  }
}
node {
  name: "dense_1/random_uniform/sub"
  op: "Sub"
  input: "dense_1/random_uniform/max"
  input: "dense_1/random_uniform/min"
  attr {
    key: "T"
    value {
      type: DT_FLOAT
    }
  }
}
node {
  name: "dense_1/random_uniform/mul"
  op: "Mul"
  input: "dense_1/random_uniform/RandomUniform"
  input: "dense_1/random_uniform/sub"
  attr {
    key: "T"
    value {
      type: DT_FLOAT
    }
  }
}
node {
  name: "dense_1/random_uniform"
  op: "Add"
  input: "dense_1/random_uniform/mul"
  input: "dense_1/random_uniform/min"
  attr {
    key: "T"
    value {
      type: DT_FLOAT
    }
  }
}
node {
  name: "dense_1/kernel"
  op: "VariableV2"
  attr {
    key: "container"
    value {
      s: ""
    }
  }
  attr {
    key: "dtype"
    value {
      type: DT_FLOAT
    }
  }
  attr {
    key: "shape"
    value {
      shape {
        dim {
          size: 3600
        }
        dim {
          size: 128
        }
      }
    }
  }
  attr {
    key: "shared_name"
    value {
      s: ""
    }
  }
}
node {
  name: "dense_1/kernel/Assign"
  op: "Assign"
  input: "dense_1/kernel"
  input: "dense_1/random_uniform"
  attr {
    key: "T"
    value {
      type: DT_FLOAT
    }
  }
  attr {
    key: "_class"
    value {
      list {
        s: "loc:@dense_1/kernel"
      }
    }
  }
  attr {
    key: "use_locking"
    value {
      b: true
    }
  }
  attr {
    key: "validate_shape"
    value {
      b: true
    }
  }
}
node {
  name: "dense_1/kernel/read"
  op: "Identity"
  input: "dense_1/kernel"
  attr {
    key: "T"
    value {
      type: DT_FLOAT
    }
  }
  attr {
    key: "_class"
    value {
      list {
        s: "loc:@dense_1/kernel"
      }
    }
  }
}
node {
  name: "dense_1/Const"
  op: "Const"
  attr {
    key: "dtype"
    value {
      type: DT_FLOAT
    }
  }
  attr {
    key: "value"
    value {
      tensor {
        dtype: DT_FLOAT
        tensor_shape {
          dim {
            size: 128
          }
        }
        float_val: 0.0
      }
    }
  }
}
node {
  name: "dense_1/bias"
  op: "VariableV2"
  attr {
    key: "container"
    value {
      s: ""
    }
  }
  attr {
    key: "dtype"
    value {
      type: DT_FLOAT
    }
  }
  attr {
    key: "shape"
    value {
      shape {
        dim {
          size: 128
        }
      }
    }
  }
  attr {
    key: "shared_name"
    value {
      s: ""
    }
  }
}
node {
  name: "dense_1/bias/Assign"
  op: "Assign"
  input: "dense_1/bias"
  input: "dense_1/Const"
  attr {
    key: "T"
    value {
      type: DT_FLOAT
    }
  }
  attr {
    key: "_class"
    value {
      list {
        s: "loc:@dense_1/bias"
      }
    }
  }
  attr {
    key: "use_locking"
    value {
      b: true
    }
  }
  attr {
    key: "validate_shape"
    value {
      b: true
    }
  }
}
node {
  name: "dense_1/bias/read"
  op: "Identity"
  input: "dense_1/bias"
  attr {
    key: "T"
    value {
      type: DT_FLOAT
    }
  }
  attr {
    key: "_class"
    value {
      list {
        s: "loc:@dense_1/bias"
      }
    }
  }
}
node {
  name: "dense_1/MatMul"
  op: "MatMul"
  input: "flatten_1/Reshape"
  input: "dense_1/kernel/read"
  attr {
    key: "T"
    value {
      type: DT_FLOAT
    }
  }
  attr {
    key: "transpose_a"
    value {
      b: false
    }
  }
  attr {
    key: "transpose_b"
    value {
      b: false
    }
  }
}
node {
  name: "dense_1/BiasAdd"
  op: "BiasAdd"
  input: "dense_1/MatMul"
  input: "dense_1/bias/read"
  attr {
    key: "T"
    value {
      type: DT_FLOAT
    }
  }
  attr {
    key: "data_format"
    value {
      s: "NHWC"
    }
  }
}
node {
  name: "dense_1/Relu"
  op: "Relu"
  input: "dense_1/BiasAdd"
  attr {
    key: "T"
    value {
      type: DT_FLOAT
    }
  }
}
node {
  name: "dense_2/random_uniform/shape"
  op: "Const"
  attr {
    key: "dtype"
    value {
      type: DT_INT32
    }
  }
  attr {
    key: "value"
    value {
      tensor {
        dtype: DT_INT32
        tensor_shape {
          dim {
            size: 2
          }
        }
        tensor_content: "\200\000\000\000@\000\000\000"
      }
    }
  }
}
node {
  name: "dense_2/random_uniform/min"
  op: "Const"
  attr {
    key: "dtype"
    value {
      type: DT_FLOAT
    }
  }
  attr {
    key: "value"
    value {
      tensor {
        dtype: DT_FLOAT
        tensor_shape {
        }
        float_val: -0.1767766922712326
      }
    }
  }
}
node {
  name: "dense_2/random_uniform/max"
  op: "Const"
  attr {
    key: "dtype"
    value {
      type: DT_FLOAT
    }
  }
  attr {
    key: "value"
    value {
      tensor {
        dtype: DT_FLOAT
        tensor_shape {
        }
        float_val: 0.1767766922712326
      }
    }
  }
}
node {
  name: "dense_2/random_uniform/RandomUniform"
  op: "RandomUniform"
  input: "dense_2/random_uniform/shape"
  attr {
    key: "T"
    value {
      type: DT_INT32
    }
  }
  attr {
    key: "dtype"
    value {
      type: DT_FLOAT
    }
  }
  attr {
    key: "seed"
    value {
      i: 87654321
    }
  }
  attr {
    key: "seed2"
    value {
      i: 1686157
    }
  }
}
node {
  name: "dense_2/random_uniform/sub"
  op: "Sub"
  input: "dense_2/random_uniform/max"
  input: "dense_2/random_uniform/min"
  attr {
    key: "T"
    value {
      type: DT_FLOAT
    }
  }
}
node {
  name: "dense_2/random_uniform/mul"
  op: "Mul"
  input: "dense_2/random_uniform/RandomUniform"
  input: "dense_2/random_uniform/sub"
  attr {
    key: "T"
    value {
      type: DT_FLOAT
    }
  }
}
node {
  name: "dense_2/random_uniform"
  op: "Add"
  input: "dense_2/random_uniform/mul"
  input: "dense_2/random_uniform/min"
  attr {
    key: "T"
    value {
      type: DT_FLOAT
    }
  }
}
node {
  name: "dense_2/kernel"
  op: "VariableV2"
  attr {
    key: "container"
    value {
      s: ""
    }
  }
  attr {
    key: "dtype"
    value {
      type: DT_FLOAT
    }
  }
  attr {
    key: "shape"
    value {
      shape {
        dim {
          size: 128
        }
        dim {
          size: 64
        }
      }
    }
  }
  attr {
    key: "shared_name"
    value {
      s: ""
    }
  }
}
node {
  name: "dense_2/kernel/Assign"
  op: "Assign"
  input: "dense_2/kernel"
  input: "dense_2/random_uniform"
  attr {
    key: "T"
    value {
      type: DT_FLOAT
    }
  }
  attr {
    key: "_class"
    value {
      list {
        s: "loc:@dense_2/kernel"
      }
    }
  }
  attr {
    key: "use_locking"
    value {
      b: true
    }
  }
  attr {
    key: "validate_shape"
    value {
      b: true
    }
  }
}
node {
  name: "dense_2/kernel/read"
  op: "Identity"
  input: "dense_2/kernel"
  attr {
    key: "T"
    value {
      type: DT_FLOAT
    }
  }
  attr {
    key: "_class"
    value {
      list {
        s: "loc:@dense_2/kernel"
      }
    }
  }
}
node {
  name: "dense_2/Const"
  op: "Const"
  attr {
    key: "dtype"
    value {
      type: DT_FLOAT
    }
  }
  attr {
    key: "value"
    value {
      tensor {
        dtype: DT_FLOAT
        tensor_shape {
          dim {
            size: 64
          }
        }
        float_val: 0.0
      }
    }
  }
}
node {
  name: "dense_2/bias"
  op: "VariableV2"
  attr {
    key: "container"
    value {
      s: ""
    }
  }
  attr {
    key: "dtype"
    value {
      type: DT_FLOAT
    }
  }
  attr {
    key: "shape"
    value {
      shape {
        dim {
          size: 64
        }
      }
    }
  }
  attr {
    key: "shared_name"
    value {
      s: ""
    }
  }
}
node {
  name: "dense_2/bias/Assign"
  op: "Assign"
  input: "dense_2/bias"
  input: "dense_2/Const"
  attr {
    key: "T"
    value {
      type: DT_FLOAT
    }
  }
  attr {
    key: "_class"
    value {
      list {
        s: "loc:@dense_2/bias"
      }
    }
  }
  attr {
    key: "use_locking"
    value {
      b: true
    }
  }
  attr {
    key: "validate_shape"
    value {
      b: true
    }
  }
}
node {
  name: "dense_2/bias/read"
  op: "Identity"
  input: "dense_2/bias"
  attr {
    key: "T"
    value {
      type: DT_FLOAT
    }
  }
  attr {
    key: "_class"
    value {
      list {
        s: "loc:@dense_2/bias"
      }
    }
  }
}
node {
  name: "dense_2/MatMul"
  op: "MatMul"
  input: "dense_1/Relu"
  input: "dense_2/kernel/read"
  attr {
    key: "T"
    value {
      type: DT_FLOAT
    }
  }
  attr {
    key: "transpose_a"
    value {
      b: false
    }
  }
  attr {
    key: "transpose_b"
    value {
      b: false
    }
  }
}
node {
  name: "dense_2/BiasAdd"
  op: "BiasAdd"
  input: "dense_2/MatMul"
  input: "dense_2/bias/read"
  attr {
    key: "T"
    value {
      type: DT_FLOAT
    }
  }
  attr {
    key: "data_format"
    value {
      s: "NHWC"
    }
  }
}
node {
  name: "dense_2/Relu"
  op: "Relu"
  input: "dense_2/BiasAdd"
  attr {
    key: "T"
    value {
      type: DT_FLOAT
    }
  }
}
node {
  name: "dropout_2/Identity"
  op: "Identity"
  input: "dense_2/Relu"
  attr {
    key: "T"
    value {
      type: DT_FLOAT
    }
  }
}
node {
  name: "dense_3/random_uniform/shape"
  op: "Const"
  attr {
    key: "dtype"
    value {
      type: DT_INT32
    }
  }
  attr {
    key: "value"
    value {
      tensor {
        dtype: DT_INT32
        tensor_shape {
          dim {
            size: 2
          }
        }
        tensor_content: "@\000\000\000\004\000\000\000"
      }
    }
  }
}
node {
  name: "dense_3/random_uniform/min"
  op: "Const"
  attr {
    key: "dtype"
    value {
      type: DT_FLOAT
    }
  }
  attr {
    key: "value"
    value {
      tensor {
        dtype: DT_FLOAT
        tensor_shape {
        }
        float_val: -0.2970442771911621
      }
    }
  }
}
node {
  name: "dense_3/random_uniform/max"
  op: "Const"
  attr {
    key: "dtype"
    value {
      type: DT_FLOAT
    }
  }
  attr {
    key: "value"
    value {
      tensor {
        dtype: DT_FLOAT
        tensor_shape {
        }
        float_val: 0.2970442771911621
      }
    }
  }
}
node {
  name: "dense_3/random_uniform/RandomUniform"
  op: "RandomUniform"
  input: "dense_3/random_uniform/shape"
  attr {
    key: "T"
    value {
      type: DT_INT32
    }
  }
  attr {
    key: "dtype"
    value {
      type: DT_FLOAT
    }
  }
  attr {
    key: "seed"
    value {
      i: 87654321
    }
  }
  attr {
    key: "seed2"
    value {
      i: 5940818
    }
  }
}
node {
  name: "dense_3/random_uniform/sub"
  op: "Sub"
  input: "dense_3/random_uniform/max"
  input: "dense_3/random_uniform/min"
  attr {
    key: "T"
    value {
      type: DT_FLOAT
    }
  }
}
node {
  name: "dense_3/random_uniform/mul"
  op: "Mul"
  input: "dense_3/random_uniform/RandomUniform"
  input: "dense_3/random_uniform/sub"
  attr {
    key: "T"
    value {
      type: DT_FLOAT
    }
  }
}
node {
  name: "dense_3/random_uniform"
  op: "Add"
  input: "dense_3/random_uniform/mul"
  input: "dense_3/random_uniform/min"
  attr {
    key: "T"
    value {
      type: DT_FLOAT
    }
  }
}
node {
  name: "dense_3/kernel"
  op: "VariableV2"
  attr {
    key: "container"
    value {
      s: ""
    }
  }
  attr {
    key: "dtype"
    value {
      type: DT_FLOAT
    }
  }
  attr {
    key: "shape"
    value {
      shape {
        dim {
          size: 64
        }
        dim {
          size: 4
        }
      }
    }
  }
  attr {
    key: "shared_name"
    value {
      s: ""
    }
  }
}
node {
  name: "dense_3/kernel/Assign"
  op: "Assign"
  input: "dense_3/kernel"
  input: "dense_3/random_uniform"
  attr {
    key: "T"
    value {
      type: DT_FLOAT
    }
  }
  attr {
    key: "_class"
    value {
      list {
        s: "loc:@dense_3/kernel"
      }
    }
  }
  attr {
    key: "use_locking"
    value {
      b: true
    }
  }
  attr {
    key: "validate_shape"
    value {
      b: true
    }
  }
}
node {
  name: "dense_3/kernel/read"
  op: "Identity"
  input: "dense_3/kernel"
  attr {
    key: "T"
    value {
      type: DT_FLOAT
    }
  }
  attr {
    key: "_class"
    value {
      list {
        s: "loc:@dense_3/kernel"
      }
    }
  }
}
node {
  name: "dense_3/Const"
  op: "Const"
  attr {
    key: "dtype"
    value {
      type: DT_FLOAT
    }
  }
  attr {
    key: "value"
    value {
      tensor {
        dtype: DT_FLOAT
        tensor_shape {
          dim {
            size: 4
          }
        }
        float_val: 0.0
      }
    }
  }
}
node {
  name: "dense_3/bias"
  op: "VariableV2"
  attr {
    key: "container"
    value {
      s: ""
    }
  }
  attr {
    key: "dtype"
    value {
      type: DT_FLOAT
    }
  }
  attr {
    key: "shape"
    value {
      shape {
        dim {
          size: 4
        }
      }
    }
  }
  attr {
    key: "shared_name"
    value {
      s: ""
    }
  }
}
node {
  name: "dense_3/bias/Assign"
  op: "Assign"
  input: "dense_3/bias"
  input: "dense_3/Const"
  attr {
    key: "T"
    value {
      type: DT_FLOAT
    }
  }
  attr {
    key: "_class"
    value {
      list {
        s: "loc:@dense_3/bias"
      }
    }
  }
  attr {
    key: "use_locking"
    value {
      b: true
    }
  }
  attr {
    key: "validate_shape"
    value {
      b: true
    }
  }
}
node {
  name: "dense_3/bias/read"
  op: "Identity"
  input: "dense_3/bias"
  attr {
    key: "T"
    value {
      type: DT_FLOAT
    }
  }
  attr {
    key: "_class"
    value {
      list {
        s: "loc:@dense_3/bias"
      }
    }
  }
}
node {
  name: "dense_3/MatMul"
  op: "MatMul"
  input: "dropout_2/Identity"
  input: "dense_3/kernel/read"
  attr {
    key: "T"
    value {
      type: DT_FLOAT
    }
  }
  attr {
    key: "transpose_a"
    value {
      b: false
    }
  }
  attr {
    key: "transpose_b"
    value {
      b: false
    }
  }
}
node {
  name: "dense_3/BiasAdd"
  op: "BiasAdd"
  input: "dense_3/MatMul"
  input: "dense_3/bias/read"
  attr {
    key: "T"
    value {
      type: DT_FLOAT
    }
  }
  attr {
    key: "data_format"
    value {
      s: "NHWC"
    }
  }
}
node {
  name: "dense_3/Softmax"
  op: "Softmax"
  input: "dense_3/BiasAdd"
  attr {
    key: "T"
    value {
      type: DT_FLOAT
    }
  }
}
node {
  name: "Placeholder"
  op: "Placeholder"
  attr {
    key: "dtype"
    value {
      type: DT_FLOAT
    }
  }
  attr {
    key: "shape"
    value {
      shape {
        dim {
          size: 2
        }
        dim {
          size: 2
        }
        dim {
          size: 1
        }
        dim {
          size: 100
        }
      }
    }
  }
}
node {
  name: "Assign"
  op: "Assign"
  input: "conv2d_1/kernel"
  input: "Placeholder"
  attr {
    key: "T"
    value {
      type: DT_FLOAT
    }
  }
  attr {
    key: "_class"
    value {
      list {
        s: "loc:@conv2d_1/kernel"
      }
    }
  }
  attr {
    key: "use_locking"
    value {
      b: false
    }
  }
  attr {
    key: "validate_shape"
    value {
      b: true
    }
  }
}
node {
  name: "Placeholder_1"
  op: "Placeholder"
  attr {
    key: "dtype"
    value {
      type: DT_FLOAT
    }
  }
  attr {
    key: "shape"
    value {
      shape {
        dim {
          size: 100
        }
      }
    }
  }
}
node {
  name: "Assign_1"
  op: "Assign"
  input: "conv2d_1/bias"
  input: "Placeholder_1"
  attr {
    key: "T"
    value {
      type: DT_FLOAT
    }
  }
  attr {
    key: "_class"
    value {
      list {
        s: "loc:@conv2d_1/bias"
      }
    }
  }
  attr {
    key: "use_locking"
    value {
      b: false
    }
  }
  attr {
    key: "validate_shape"
    value {
      b: true
    }
  }
}
node {
  name: "Placeholder_2"
  op: "Placeholder"
  attr {
    key: "dtype"
    value {
      type: DT_FLOAT
    }
  }
  attr {
    key: "shape"
    value {
      shape {
        dim {
          size: 3600
        }
        dim {
          size: 128
        }
      }
    }
  }
}
node {
  name: "Assign_2"
  op: "Assign"
  input: "dense_1/kernel"
  input: "Placeholder_2"
  attr {
    key: "T"
    value {
      type: DT_FLOAT
    }
  }
  attr {
    key: "_class"
    value {
      list {
        s: "loc:@dense_1/kernel"
      }
    }
  }
  attr {
    key: "use_locking"
    value {
      b: false
    }
  }
  attr {
    key: "validate_shape"
    value {
      b: true
    }
  }
}
node {
  name: "Placeholder_3"
  op: "Placeholder"
  attr {
    key: "dtype"
    value {
      type: DT_FLOAT
    }
  }
  attr {
    key: "shape"
    value {
      shape {
        dim {
          size: 128
        }
      }
    }
  }
}
node {
  name: "Assign_3"
  op: "Assign"
  input: "dense_1/bias"
  input: "Placeholder_3"
  attr {
    key: "T"
    value {
      type: DT_FLOAT
    }
  }
  attr {
    key: "_class"
    value {
      list {
        s: "loc:@dense_1/bias"
      }
    }
  }
  attr {
    key: "use_locking"
    value {
      b: false
    }
  }
  attr {
    key: "validate_shape"
    value {
      b: true
    }
  }
}
node {
  name: "Placeholder_4"
  op: "Placeholder"
  attr {
    key: "dtype"
    value {
      type: DT_FLOAT
    }
  }
  attr {
    key: "shape"
    value {
      shape {
        dim {
          size: 128
        }
        dim {
          size: 64
        }
      }
    }
  }
}
node {
  name: "Assign_4"
  op: "Assign"
  input: "dense_2/kernel"
  input: "Placeholder_4"
  attr {
    key: "T"
    value {
      type: DT_FLOAT
    }
  }
  attr {
    key: "_class"
    value {
      list {
        s: "loc:@dense_2/kernel"
      }
    }
  }
  attr {
    key: "use_locking"
    value {
      b: false
    }
  }
  attr {
    key: "validate_shape"
    value {
      b: true
    }
  }
}
node {
  name: "Placeholder_5"
  op: "Placeholder"
  attr {
    key: "dtype"
    value {
      type: DT_FLOAT
    }
  }
  attr {
    key: "shape"
    value {
      shape {
        dim {
          size: 64
        }
      }
    }
  }
}
node {
  name: "Assign_5"
  op: "Assign"
  input: "dense_2/bias"
  input: "Placeholder_5"
  attr {
    key: "T"
    value {
      type: DT_FLOAT
    }
  }
  attr {
    key: "_class"
    value {
      list {
        s: "loc:@dense_2/bias"
      }
    }
  }
  attr {
    key: "use_locking"
    value {
      b: false
    }
  }
  attr {
    key: "validate_shape"
    value {
      b: true
    }
  }
}
node {
  name: "Placeholder_6"
  op: "Placeholder"
  attr {
    key: "dtype"
    value {
      type: DT_FLOAT
    }
  }
  attr {
    key: "shape"
    value {
      shape {
        dim {
          size: 64
        }
        dim {
          size: 4
        }
      }
    }
  }
}
node {
  name: "Assign_6"
  op: "Assign"
  input: "dense_3/kernel"
  input: "Placeholder_6"
  attr {
    key: "T"
    value {
      type: DT_FLOAT
    }
  }
  attr {
    key: "_class"
    value {
      list {
        s: "loc:@dense_3/kernel"
      }
    }
  }
  attr {
    key: "use_locking"
    value {
      b: false
    }
  }
  attr {
    key: "validate_shape"
    value {
      b: true
    }
  }
}
node {
  name: "Placeholder_7"
  op: "Placeholder"
  attr {
    key: "dtype"
    value {
      type: DT_FLOAT
    }
  }
  attr {
    key: "shape"
    value {
      shape {
        dim {
          size: 4
        }
      }
    }
  }
}
node {
  name: "Assign_7"
  op: "Assign"
  input: "dense_3/bias"
  input: "Placeholder_7"
  attr {
    key: "T"
    value {
      type: DT_FLOAT
    }
  }
  attr {
    key: "_class"
    value {
      list {
        s: "loc:@dense_3/bias"
      }
    }
  }
  attr {
    key: "use_locking"
    value {
      b: false
    }
  }
  attr {
    key: "validate_shape"
    value {
      b: true
    }
  }
}
node {
  name: "IsVariableInitialized"
  op: "IsVariableInitialized"
  input: "conv2d_1/kernel"
  attr {
    key: "_class"
    value {
      list {
        s: "loc:@conv2d_1/kernel"
      }
    }
  }
  attr {
    key: "dtype"
    value {
      type: DT_FLOAT
    }
  }
}
node {
  name: "IsVariableInitialized_1"
  op: "IsVariableInitialized"
  input: "conv2d_1/bias"
  attr {
    key: "_class"
    value {
      list {
        s: "loc:@conv2d_1/bias"
      }
    }
  }
  attr {
    key: "dtype"
    value {
      type: DT_FLOAT
    }
  }
}
node {
  name: "IsVariableInitialized_2"
  op: "IsVariableInitialized"
  input: "dense_1/kernel"
  attr {
    key: "_class"
    value {
      list {
        s: "loc:@dense_1/kernel"
      }
    }
  }
  attr {
    key: "dtype"
    value {
      type: DT_FLOAT
    }
  }
}
node {
  name: "IsVariableInitialized_3"
  op: "IsVariableInitialized"
  input: "dense_1/bias"
  attr {
    key: "_class"
    value {
      list {
        s: "loc:@dense_1/bias"
      }
    }
  }
  attr {
    key: "dtype"
    value {
      type: DT_FLOAT
    }
  }
}
node {
  name: "IsVariableInitialized_4"
  op: "IsVariableInitialized"
  input: "dense_2/kernel"
  attr {
    key: "_class"
    value {
      list {
        s: "loc:@dense_2/kernel"
      }
    }
  }
  attr {
    key: "dtype"
    value {
      type: DT_FLOAT
    }
  }
}
node {
  name: "IsVariableInitialized_5"
  op: "IsVariableInitialized"
  input: "dense_2/bias"
  attr {
    key: "_class"
    value {
      list {
        s: "loc:@dense_2/bias"
      }
    }
  }
  attr {
    key: "dtype"
    value {
      type: DT_FLOAT
    }
  }
}
node {
  name: "IsVariableInitialized_6"
  op: "IsVariableInitialized"
  input: "dense_3/kernel"
  attr {
    key: "_class"
    value {
      list {
        s: "loc:@dense_3/kernel"
      }
    }
  }
  attr {
    key: "dtype"
    value {
      type: DT_FLOAT
    }
  }
}
node {
  name: "IsVariableInitialized_7"
  op: "IsVariableInitialized"
  input: "dense_3/bias"
  attr {
    key: "_class"
    value {
      list {
        s: "loc:@dense_3/bias"
      }
    }
  }
  attr {
    key: "dtype"
    value {
      type: DT_FLOAT
    }
  }
}
node {
  name: "init"
  op: "NoOp"
  input: "^conv2d_1/bias/Assign"
  input: "^conv2d_1/kernel/Assign"
  input: "^dense_1/bias/Assign"
  input: "^dense_1/kernel/Assign"
  input: "^dense_2/bias/Assign"
  input: "^dense_2/kernel/Assign"
  input: "^dense_3/bias/Assign"
  input: "^dense_3/kernel/Assign"
}
node {
  name: "Adadelta/lr/initial_value"
  op: "Const"
  attr {
    key: "dtype"
    value {
      type: DT_FLOAT
    }
  }
  attr {
    key: "value"
    value {
      tensor {
        dtype: DT_FLOAT
        tensor_shape {
        }
        float_val: 1.0
      }
    }
  }
}
node {
  name: "Adadelta/lr"
  op: "VariableV2"
  attr {
    key: "container"
    value {
      s: ""
    }
  }
  attr {
    key: "dtype"
    value {
      type: DT_FLOAT
    }
  }
  attr {
    key: "shape"
    value {
      shape {
      }
    }
  }
  attr {
    key: "shared_name"
    value {
      s: ""
    }
  }
}
node {
  name: "Adadelta/lr/Assign"
  op: "Assign"
  input: "Adadelta/lr"
  input: "Adadelta/lr/initial_value"
  attr {
    key: "T"
    value {
      type: DT_FLOAT
    }
  }
  attr {
    key: "_class"
    value {
      list {
        s: "loc:@Adadelta/lr"
      }
    }
  }
  attr {
    key: "use_locking"
    value {
      b: true
    }
  }
  attr {
    key: "validate_shape"
    value {
      b: true
    }
  }
}
node {
  name: "Adadelta/lr/read"
  op: "Identity"
  input: "Adadelta/lr"
  attr {
    key: "T"
    value {
      type: DT_FLOAT
    }
  }
  attr {
    key: "_class"
    value {
      list {
        s: "loc:@Adadelta/lr"
      }
    }
  }
}
node {
  name: "Adadelta/decay/initial_value"
  op: "Const"
  attr {
    key: "dtype"
    value {
      type: DT_FLOAT
    }
  }
  attr {
    key: "value"
    value {
      tensor {
        dtype: DT_FLOAT
        tensor_shape {
        }
        float_val: 0.0
      }
    }
  }
}
node {
  name: "Adadelta/decay"
  op: "VariableV2"
  attr {
    key: "container"
    value {
      s: ""
    }
  }
  attr {
    key: "dtype"
    value {
      type: DT_FLOAT
    }
  }
  attr {
    key: "shape"
    value {
      shape {
      }
    }
  }
  attr {
    key: "shared_name"
    value {
      s: ""
    }
  }
}
node {
  name: "Adadelta/decay/Assign"
  op: "Assign"
  input: "Adadelta/decay"
  input: "Adadelta/decay/initial_value"
  attr {
    key: "T"
    value {
      type: DT_FLOAT
    }
  }
  attr {
    key: "_class"
    value {
      list {
        s: "loc:@Adadelta/decay"
      }
    }
  }
  attr {
    key: "use_locking"
    value {
      b: true
    }
  }
  attr {
    key: "validate_shape"
    value {
      b: true
    }
  }
}
node {
  name: "Adadelta/decay/read"
  op: "Identity"
  input: "Adadelta/decay"
  attr {
    key: "T"
    value {
      type: DT_FLOAT
    }
  }
  attr {
    key: "_class"
    value {
      list {
        s: "loc:@Adadelta/decay"
      }
    }
  }
}
node {
  name: "Adadelta/iterations/initial_value"
  op: "Const"
  attr {
    key: "dtype"
    value {
      type: DT_INT64
    }
  }
  attr {
    key: "value"
    value {
      tensor {
        dtype: DT_INT64
        tensor_shape {
        }
        int64_val: 0
      }
    }
  }
}
node {
  name: "Adadelta/iterations"
  op: "VariableV2"
  attr {
    key: "container"
    value {
      s: ""
    }
  }
  attr {
    key: "dtype"
    value {
      type: DT_INT64
    }
  }
  attr {
    key: "shape"
    value {
      shape {
      }
    }
  }
  attr {
    key: "shared_name"
    value {
      s: ""
    }
  }
}
node {
  name: "Adadelta/iterations/Assign"
  op: "Assign"
  input: "Adadelta/iterations"
  input: "Adadelta/iterations/initial_value"
  attr {
    key: "T"
    value {
      type: DT_INT64
    }
  }
  attr {
    key: "_class"
    value {
      list {
        s: "loc:@Adadelta/iterations"
      }
    }
  }
  attr {
    key: "use_locking"
    value {
      b: true
    }
  }
  attr {
    key: "validate_shape"
    value {
      b: true
    }
  }
}
node {
  name: "Adadelta/iterations/read"
  op: "Identity"
  input: "Adadelta/iterations"
  attr {
    key: "T"
    value {
      type: DT_INT64
    }
  }
  attr {
    key: "_class"
    value {
      list {
        s: "loc:@Adadelta/iterations"
      }
    }
  }
}
node {
  name: "dense_3_target"
  op: "Placeholder"
  attr {
    key: "dtype"
    value {
      type: DT_FLOAT
    }
  }
  attr {
    key: "shape"
    value {
      shape {
        dim {
          size: -1
        }
        dim {
          size: -1
        }
      }
    }
  }
}
node {
  name: "dense_3_sample_weights"
  op: "Placeholder"
  attr {
    key: "dtype"
    value {
      type: DT_FLOAT
    }
  }
  attr {
    key: "shape"
    value {
      shape {
        dim {
          size: -1
        }
      }
    }
  }
}
node {
  name: "loss/dense_3_loss/Sum/reduction_indices"
  op: "Const"
  attr {
    key: "dtype"
    value {
      type: DT_INT32
    }
  }
  attr {
    key: "value"
    value {
      tensor {
        dtype: DT_INT32
        tensor_shape {
        }
        int_val: -1
      }
    }
  }
}
node {
  name: "loss/dense_3_loss/Sum"
  op: "Sum"
  input: "dense_3/Softmax"
  input: "loss/dense_3_loss/Sum/reduction_indices"
  attr {
    key: "T"
    value {
      type: DT_FLOAT
    }
  }
  attr {
    key: "Tidx"
    value {
      type: DT_INT32
    }
  }
  attr {
    key: "keep_dims"
    value {
      b: true
    }
  }
}
node {
  name: "loss/dense_3_loss/truediv"
  op: "RealDiv"
  input: "dense_3/Softmax"
  input: "loss/dense_3_loss/Sum"
  attr {
    key: "T"
    value {
      type: DT_FLOAT
    }
  }
}
node {
  name: "loss/dense_3_loss/Const"
  op: "Const"
  attr {
    key: "dtype"
    value {
      type: DT_FLOAT
    }
  }
  attr {
    key: "value"
    value {
      tensor {
        dtype: DT_FLOAT
        tensor_shape {
        }
        float_val: 1.0000000116860974e-07
      }
    }
  }
}
node {
  name: "loss/dense_3_loss/sub/x"
  op: "Const"
  attr {
    key: "dtype"
    value {
      type: DT_FLOAT
    }
  }
  attr {
    key: "value"
    value {
      tensor {
        dtype: DT_FLOAT
        tensor_shape {
        }
        float_val: 1.0
      }
    }
  }
}
node {
  name: "loss/dense_3_loss/sub"
  op: "Sub"
  input: "loss/dense_3_loss/sub/x"
  input: "loss/dense_3_loss/Const"
  attr {
    key: "T"
    value {
      type: DT_FLOAT
    }
  }
}
node {
  name: "loss/dense_3_loss/clip_by_value"
  op: "ClipByValue"
  input: "loss/dense_3_loss/truediv"
  input: "loss/dense_3_loss/Const"
  input: "loss/dense_3_loss/sub"
  attr {
    key: "T"
    value {
      type: DT_FLOAT
    }
  }
}
node {
  name: "loss/dense_3_loss/Log"
  op: "Log"
  input: "loss/dense_3_loss/clip_by_value"
  attr {
    key: "T"
    value {
      type: DT_FLOAT
    }
  }
}
node {
  name: "loss/dense_3_loss/mul"
  op: "Mul"
  input: "dense_3_target"
  input: "loss/dense_3_loss/Log"
  attr {
    key: "T"
    value {
      type: DT_FLOAT
    }
  }
}
node {
  name: "loss/dense_3_loss/Sum_1/reduction_indices"
  op: "Const"
  attr {
    key: "dtype"
    value {
      type: DT_INT32
    }
  }
  attr {
    key: "value"
    value {
      tensor {
        dtype: DT_INT32
        tensor_shape {
        }
        int_val: -1
      }
    }
  }
}
node {
  name: "loss/dense_3_loss/Sum_1"
  op: "Sum"
  input: "loss/dense_3_loss/mul"
  input: "loss/dense_3_loss/Sum_1/reduction_indices"
  attr {
    key: "T"
    value {
      type: DT_FLOAT
    }
  }
  attr {
    key: "Tidx"
    value {
      type: DT_INT32
    }
  }
  attr {
    key: "keep_dims"
    value {
      b: false
    }
  }
}
node {
  name: "loss/dense_3_loss/Neg"
  op: "Neg"
  input: "loss/dense_3_loss/Sum_1"
  attr {
    key: "T"
    value {
      type: DT_FLOAT
    }
  }
}
node {
  name: "loss/dense_3_loss/Mean/reduction_indices"
  op: "Const"
  attr {
    key: "dtype"
    value {
      type: DT_INT32
    }
  }
  attr {
    key: "value"
    value {
      tensor {
        dtype: DT_INT32
        tensor_shape {
          dim {
          }
        }
      }
    }
  }
}
node {
  name: "loss/dense_3_loss/Mean"
  op: "Mean"
  input: "loss/dense_3_loss/Neg"
  input: "loss/dense_3_loss/Mean/reduction_indices"
  attr {
    key: "T"
    value {
      type: DT_FLOAT
    }
  }
  attr {
    key: "Tidx"
    value {
      type: DT_INT32
    }
  }
  attr {
    key: "keep_dims"
    value {
      b: false
    }
  }
}
node {
  name: "loss/dense_3_loss/mul_1"
  op: "Mul"
  input: "loss/dense_3_loss/Mean"
  input: "dense_3_sample_weights"
  attr {
    key: "T"
    value {
      type: DT_FLOAT
    }
  }
}
node {
  name: "loss/dense_3_loss/NotEqual/y"
  op: "Const"
  attr {
    key: "dtype"
    value {
      type: DT_FLOAT
    }
  }
  attr {
    key: "value"
    value {
      tensor {
        dtype: DT_FLOAT
        tensor_shape {
        }
        float_val: 0.0
      }
    }
  }
}
node {
  name: "loss/dense_3_loss/NotEqual"
  op: "NotEqual"
  input: "dense_3_sample_weights"
  input: "loss/dense_3_loss/NotEqual/y"
  attr {
    key: "T"
    value {
      type: DT_FLOAT
    }
  }
}
node {
  name: "loss/dense_3_loss/Cast"
  op: "Cast"
  input: "loss/dense_3_loss/NotEqual"
  attr {
    key: "DstT"
    value {
      type: DT_FLOAT
    }
  }
  attr {
    key: "SrcT"
    value {
      type: DT_BOOL
    }
  }
}
node {
  name: "loss/dense_3_loss/Const_1"
  op: "Const"
  attr {
    key: "dtype"
    value {
      type: DT_INT32
    }
  }
  attr {
    key: "value"
    value {
      tensor {
        dtype: DT_INT32
        tensor_shape {
          dim {
            size: 1
          }
        }
        int_val: 0
      }
    }
  }
}
node {
  name: "loss/dense_3_loss/Mean_1"
  op: "Mean"
  input: "loss/dense_3_loss/Cast"
  input: "loss/dense_3_loss/Const_1"
  attr {
    key: "T"
    value {
      type: DT_FLOAT
    }
  }
  attr {
    key: "Tidx"
    value {
      type: DT_INT32
    }
  }
  attr {
    key: "keep_dims"
    value {
      b: false
    }
  }
}
node {
  name: "loss/dense_3_loss/truediv_1"
  op: "RealDiv"
  input: "loss/dense_3_loss/mul_1"
  input: "loss/dense_3_loss/Mean_1"
  attr {
    key: "T"
    value {
      type: DT_FLOAT
    }
  }
}
node {
  name: "loss/dense_3_loss/Const_2"
  op: "Const"
  attr {
    key: "dtype"
    value {
      type: DT_INT32
    }
  }
  attr {
    key: "value"
    value {
      tensor {
        dtype: DT_INT32
        tensor_shape {
          dim {
            size: 1
          }
        }
        int_val: 0
      }
    }
  }
}
node {
  name: "loss/dense_3_loss/Mean_2"
  op: "Mean"
  input: "loss/dense_3_loss/truediv_1"
  input: "loss/dense_3_loss/Const_2"
  attr {
    key: "T"
    value {
      type: DT_FLOAT
    }
  }
  attr {
    key: "Tidx"
    value {
      type: DT_INT32
    }
  }
  attr {
    key: "keep_dims"
    value {
      b: false
    }
  }
}
node {
  name: "loss/mul/x"
  op: "Const"
  attr {
    key: "dtype"
    value {
      type: DT_FLOAT
    }
  }
  attr {
    key: "value"
    value {
      tensor {
        dtype: DT_FLOAT
        tensor_shape {
        }
        float_val: 1.0
      }
    }
  }
}
node {
  name: "loss/mul"
  op: "Mul"
  input: "loss/mul/x"
  input: "loss/dense_3_loss/Mean_2"
  attr {
    key: "T"
    value {
      type: DT_FLOAT
    }
  }
}
node {
  name: "metrics/acc/ArgMax/dimension"
  op: "Const"
  attr {
    key: "dtype"
    value {
      type: DT_INT32
    }
  }
  attr {
    key: "value"
    value {
      tensor {
        dtype: DT_INT32
        tensor_shape {
        }
        int_val: -1
      }
    }
  }
}
node {
  name: "metrics/acc/ArgMax"
  op: "ArgMax"
  input: "dense_3_target"
  input: "metrics/acc/ArgMax/dimension"
  attr {
    key: "T"
    value {
      type: DT_FLOAT
    }
  }
  attr {
    key: "Tidx"
    value {
      type: DT_INT32
    }
  }
  attr {
    key: "output_type"
    value {
      type: DT_INT64
    }
  }
}
node {
  name: "metrics/acc/ArgMax_1/dimension"
  op: "Const"
  attr {
    key: "dtype"
    value {
      type: DT_INT32
    }
  }
  attr {
    key: "value"
    value {
      tensor {
        dtype: DT_INT32
        tensor_shape {
        }
        int_val: -1
      }
    }
  }
}
node {
  name: "metrics/acc/ArgMax_1"
  op: "ArgMax"
  input: "dense_3/Softmax"
  input: "metrics/acc/ArgMax_1/dimension"
  attr {
    key: "T"
    value {
      type: DT_FLOAT
    }
  }
  attr {
    key: "Tidx"
    value {
      type: DT_INT32
    }
  }
  attr {
    key: "output_type"
    value {
      type: DT_INT64
    }
  }
}
node {
  name: "metrics/acc/Equal"
  op: "Equal"
  input: "metrics/acc/ArgMax"
  input: "metrics/acc/ArgMax_1"
  attr {
    key: "T"
    value {
      type: DT_INT64
    }
  }
}
node {
  name: "metrics/acc/Cast"
  op: "Cast"
  input: "metrics/acc/Equal"
  attr {
    key: "DstT"
    value {
      type: DT_FLOAT
    }
  }
  attr {
    key: "SrcT"
    value {
      type: DT_BOOL
    }
  }
}
node {
  name: "metrics/acc/Const"
  op: "Const"
  attr {
    key: "dtype"
    value {
      type: DT_INT32
    }
  }
  attr {
    key: "value"
    value {
      tensor {
        dtype: DT_INT32
        tensor_shape {
          dim {
            size: 1
          }
        }
        int_val: 0
      }
    }
  }
}
node {
  name: "metrics/acc/Mean"
  op: "Mean"
  input: "metrics/acc/Cast"
  input: "metrics/acc/Const"
  attr {
    key: "T"
    value {
      type: DT_FLOAT
    }
  }
  attr {
    key: "Tidx"
    value {
      type: DT_INT32
    }
  }
  attr {
    key: "keep_dims"
    value {
      b: false
    }
  }
}
node {
  name: "training/Adadelta/gradients/Shape"
  op: "Const"
  attr {
    key: "_class"
    value {
      list {
        s: "loc:@loss/mul"
      }
    }
  }
  attr {
    key: "dtype"
    value {
      type: DT_INT32
    }
  }
  attr {
    key: "value"
    value {
      tensor {
        dtype: DT_INT32
        tensor_shape {
          dim {
          }
        }
      }
    }
  }
}
node {
  name: "training/Adadelta/gradients/grad_ys_0"
  op: "Const"
  attr {
    key: "_class"
    value {
      list {
        s: "loc:@loss/mul"
      }
    }
  }
  attr {
    key: "dtype"
    value {
      type: DT_FLOAT
    }
  }
  attr {
    key: "value"
    value {
      tensor {
        dtype: DT_FLOAT
        tensor_shape {
        }
        float_val: 1.0
      }
    }
  }
}
node {
  name: "training/Adadelta/gradients/Fill"
  op: "Fill"
  input: "training/Adadelta/gradients/Shape"
  input: "training/Adadelta/gradients/grad_ys_0"
  attr {
    key: "T"
    value {
      type: DT_FLOAT
    }
  }
  attr {
    key: "_class"
    value {
      list {
        s: "loc:@loss/mul"
      }
    }
  }
  attr {
    key: "index_type"
    value {
      type: DT_INT32
    }
  }
}
node {
  name: "training/Adadelta/gradients/loss/mul_grad/Mul"
  op: "Mul"
  input: "training/Adadelta/gradients/Fill"
  input: "loss/dense_3_loss/Mean_2"
  attr {
    key: "T"
    value {
      type: DT_FLOAT
    }
  }
  attr {
    key: "_class"
    value {
      list {
        s: "loc:@loss/mul"
      }
    }
  }
}
node {
  name: "training/Adadelta/gradients/loss/mul_grad/Mul_1"
  op: "Mul"
  input: "training/Adadelta/gradients/Fill"
  input: "loss/mul/x"
  attr {
    key: "T"
    value {
      type: DT_FLOAT
    }
  }
  attr {
    key: "_class"
    value {
      list {
        s: "loc:@loss/mul"
      }
    }
  }
}
node {
  name: "training/Adadelta/gradients/loss/dense_3_loss/Mean_2_grad/Reshape/shape"
  op: "Const"
  attr {
    key: "_class"
    value {
      list {
        s: "loc:@loss/dense_3_loss/Mean_2"
      }
    }
  }
  attr {
    key: "dtype"
    value {
      type: DT_INT32
    }
  }
  attr {
    key: "value"
    value {
      tensor {
        dtype: DT_INT32
        tensor_shape {
          dim {
            size: 1
          }
        }
        int_val: 1
      }
    }
  }
}
node {
  name: "training/Adadelta/gradients/loss/dense_3_loss/Mean_2_grad/Reshape"
  op: "Reshape"
  input: "training/Adadelta/gradients/loss/mul_grad/Mul_1"
  input: "training/Adadelta/gradients/loss/dense_3_loss/Mean_2_grad/Reshape/shape"
  attr {
    key: "T"
    value {
      type: DT_FLOAT
    }
  }
  attr {
    key: "Tshape"
    value {
      type: DT_INT32
    }
  }
  attr {
    key: "_class"
    value {
      list {
        s: "loc:@loss/dense_3_loss/Mean_2"
      }
    }
  }
}
node {
  name: "training/Adadelta/gradients/loss/dense_3_loss/Mean_2_grad/Shape"
  op: "Shape"
  input: "loss/dense_3_loss/truediv_1"
  attr {
    key: "T"
    value {
      type: DT_FLOAT
    }
  }
  attr {
    key: "_class"
    value {
      list {
        s: "loc:@loss/dense_3_loss/Mean_2"
      }
    }
  }
  attr {
    key: "out_type"
    value {
      type: DT_INT32
    }
  }
}
node {
  name: "training/Adadelta/gradients/loss/dense_3_loss/Mean_2_grad/Tile"
  op: "Tile"
  input: "training/Adadelta/gradients/loss/dense_3_loss/Mean_2_grad/Reshape"
  input: "training/Adadelta/gradients/loss/dense_3_loss/Mean_2_grad/Shape"
  attr {
    key: "T"
    value {
      type: DT_FLOAT
    }
  }
  attr {
    key: "Tmultiples"
    value {
      type: DT_INT32
    }
  }
  attr {
    key: "_class"
    value {
      list {
        s: "loc:@loss/dense_3_loss/Mean_2"
      }
    }
  }
}
node {
  name: "training/Adadelta/gradients/loss/dense_3_loss/Mean_2_grad/Shape_1"
  op: "Shape"
  input: "loss/dense_3_loss/truediv_1"
  attr {
    key: "T"
    value {
      type: DT_FLOAT
    }
  }
  attr {
    key: "_class"
    value {
      list {
        s: "loc:@loss/dense_3_loss/Mean_2"
      }
    }
  }
  attr {
    key: "out_type"
    value {
      type: DT_INT32
    }
  }
}
node {
  name: "training/Adadelta/gradients/loss/dense_3_loss/Mean_2_grad/Shape_2"
  op: "Const"
  attr {
    key: "_class"
    value {
      list {
        s: "loc:@loss/dense_3_loss/Mean_2"
      }
    }
  }
  attr {
    key: "dtype"
    value {
      type: DT_INT32
    }
  }
  attr {
    key: "value"
    value {
      tensor {
        dtype: DT_INT32
        tensor_shape {
          dim {
          }
        }
      }
    }
  }
}
node {
  name: "training/Adadelta/gradients/loss/dense_3_loss/Mean_2_grad/Const"
  op: "Const"
  attr {
    key: "_class"
    value {
      list {
        s: "loc:@loss/dense_3_loss/Mean_2"
      }
    }
  }
  attr {
    key: "dtype"
    value {
      type: DT_INT32
    }
  }
  attr {
    key: "value"
    value {
      tensor {
        dtype: DT_INT32
        tensor_shape {
          dim {
            size: 1
          }
        }
        int_val: 0
      }
    }
  }
}
node {
  name: "training/Adadelta/gradients/loss/dense_3_loss/Mean_2_grad/Prod"
  op: "Prod"
  input: "training/Adadelta/gradients/loss/dense_3_loss/Mean_2_grad/Shape_1"
  input: "training/Adadelta/gradients/loss/dense_3_loss/Mean_2_grad/Const"
  attr {
    key: "T"
    value {
      type: DT_INT32
    }
  }
  attr {
    key: "Tidx"
    value {
      type: DT_INT32
    }
  }
  attr {
    key: "_class"
    value {
      list {
        s: "loc:@loss/dense_3_loss/Mean_2"
      }
    }
  }
  attr {
    key: "keep_dims"
    value {
      b: false
    }
  }
}
node {
  name: "training/Adadelta/gradients/loss/dense_3_loss/Mean_2_grad/Const_1"
  op: "Const"
  attr {
    key: "_class"
    value {
      list {
        s: "loc:@loss/dense_3_loss/Mean_2"
      }
    }
  }
  attr {
    key: "dtype"
    value {
      type: DT_INT32
    }
  }
  attr {
    key: "value"
    value {
      tensor {
        dtype: DT_INT32
        tensor_shape {
          dim {
            size: 1
          }
        }
        int_val: 0
      }
    }
  }
}
node {
  name: "training/Adadelta/gradients/loss/dense_3_loss/Mean_2_grad/Prod_1"
  op: "Prod"
  input: "training/Adadelta/gradients/loss/dense_3_loss/Mean_2_grad/Shape_2"
  input: "training/Adadelta/gradients/loss/dense_3_loss/Mean_2_grad/Const_1"
  attr {
    key: "T"
    value {
      type: DT_INT32
    }
  }
  attr {
    key: "Tidx"
    value {
      type: DT_INT32
    }
  }
  attr {
    key: "_class"
    value {
      list {
        s: "loc:@loss/dense_3_loss/Mean_2"
      }
    }
  }
  attr {
    key: "keep_dims"
    value {
      b: false
    }
  }
}
node {
  name: "training/Adadelta/gradients/loss/dense_3_loss/Mean_2_grad/Maximum/y"
  op: "Const"
  attr {
    key: "_class"
    value {
      list {
        s: "loc:@loss/dense_3_loss/Mean_2"
      }
    }
  }
  attr {
    key: "dtype"
    value {
      type: DT_INT32
    }
  }
  attr {
    key: "value"
    value {
      tensor {
        dtype: DT_INT32
        tensor_shape {
        }
        int_val: 1
      }
    }
  }
}
node {
  name: "training/Adadelta/gradients/loss/dense_3_loss/Mean_2_grad/Maximum"
  op: "Maximum"
  input: "training/Adadelta/gradients/loss/dense_3_loss/Mean_2_grad/Prod_1"
  input: "training/Adadelta/gradients/loss/dense_3_loss/Mean_2_grad/Maximum/y"
  attr {
    key: "T"
    value {
      type: DT_INT32
    }
  }
  attr {
    key: "_class"
    value {
      list {
        s: "loc:@loss/dense_3_loss/Mean_2"
      }
    }
  }
}
node {
  name: "training/Adadelta/gradients/loss/dense_3_loss/Mean_2_grad/floordiv"
  op: "FloorDiv"
  input: "training/Adadelta/gradients/loss/dense_3_loss/Mean_2_grad/Prod"
  input: "training/Adadelta/gradients/loss/dense_3_loss/Mean_2_grad/Maximum"
  attr {
    key: "T"
    value {
      type: DT_INT32
    }
  }
  attr {
    key: "_class"
    value {
      list {
        s: "loc:@loss/dense_3_loss/Mean_2"
      }
    }
  }
}
node {
  name: "training/Adadelta/gradients/loss/dense_3_loss/Mean_2_grad/Cast"
  op: "Cast"
  input: "training/Adadelta/gradients/loss/dense_3_loss/Mean_2_grad/floordiv"
  attr {
    key: "DstT"
    value {
      type: DT_FLOAT
    }
  }
  attr {
    key: "SrcT"
    value {
      type: DT_INT32
    }
  }
  attr {
    key: "_class"
    value {
      list {
        s: "loc:@loss/dense_3_loss/Mean_2"
      }
    }
  }
}
node {
  name: "training/Adadelta/gradients/loss/dense_3_loss/Mean_2_grad/truediv"
  op: "RealDiv"
  input: "training/Adadelta/gradients/loss/dense_3_loss/Mean_2_grad/Tile"
  input: "training/Adadelta/gradients/loss/dense_3_loss/Mean_2_grad/Cast"
  attr {
    key: "T"
    value {
      type: DT_FLOAT
    }
  }
  attr {
    key: "_class"
    value {
      list {
        s: "loc:@loss/dense_3_loss/Mean_2"
      }
    }
  }
}
node {
  name: "training/Adadelta/gradients/loss/dense_3_loss/truediv_1_grad/Shape"
  op: "Shape"
  input: "loss/dense_3_loss/mul_1"
  attr {
    key: "T"
    value {
      type: DT_FLOAT
    }
  }
  attr {
    key: "_class"
    value {
      list {
        s: "loc:@loss/dense_3_loss/truediv_1"
      }
    }
  }
  attr {
    key: "out_type"
    value {
      type: DT_INT32
    }
  }
}
node {
  name: "training/Adadelta/gradients/loss/dense_3_loss/truediv_1_grad/Shape_1"
  op: "Const"
  attr {
    key: "_class"
    value {
      list {
        s: "loc:@loss/dense_3_loss/truediv_1"
      }
    }
  }
  attr {
    key: "dtype"
    value {
      type: DT_INT32
    }
  }
  attr {
    key: "value"
    value {
      tensor {
        dtype: DT_INT32
        tensor_shape {
          dim {
          }
        }
      }
    }
  }
}
node {
  name: "training/Adadelta/gradients/loss/dense_3_loss/truediv_1_grad/BroadcastGradientArgs"
  op: "BroadcastGradientArgs"
  input: "training/Adadelta/gradients/loss/dense_3_loss/truediv_1_grad/Shape"
  input: "training/Adadelta/gradients/loss/dense_3_loss/truediv_1_grad/Shape_1"
  attr {
    key: "T"
    value {
      type: DT_INT32
    }
  }
  attr {
    key: "_class"
    value {
      list {
        s: "loc:@loss/dense_3_loss/truediv_1"
      }
    }
  }
}
node {
  name: "training/Adadelta/gradients/loss/dense_3_loss/truediv_1_grad/RealDiv"
  op: "RealDiv"
  input: "training/Adadelta/gradients/loss/dense_3_loss/Mean_2_grad/truediv"
  input: "loss/dense_3_loss/Mean_1"
  attr {
    key: "T"
    value {
      type: DT_FLOAT
    }
  }
  attr {
    key: "_class"
    value {
      list {
        s: "loc:@loss/dense_3_loss/truediv_1"
      }
    }
  }
}
node {
  name: "training/Adadelta/gradients/loss/dense_3_loss/truediv_1_grad/Sum"
  op: "Sum"
  input: "training/Adadelta/gradients/loss/dense_3_loss/truediv_1_grad/RealDiv"
  input: "training/Adadelta/gradients/loss/dense_3_loss/truediv_1_grad/BroadcastGradientArgs"
  attr {
    key: "T"
    value {
      type: DT_FLOAT
    }
  }
  attr {
    key: "Tidx"
    value {
      type: DT_INT32
    }
  }
  attr {
    key: "_class"
    value {
      list {
        s: "loc:@loss/dense_3_loss/truediv_1"
      }
    }
  }
  attr {
    key: "keep_dims"
    value {
      b: false
    }
  }
}
node {
  name: "training/Adadelta/gradients/loss/dense_3_loss/truediv_1_grad/Reshape"
  op: "Reshape"
  input: "training/Adadelta/gradients/loss/dense_3_loss/truediv_1_grad/Sum"
  input: "training/Adadelta/gradients/loss/dense_3_loss/truediv_1_grad/Shape"
  attr {
    key: "T"
    value {
      type: DT_FLOAT
    }
  }
  attr {
    key: "Tshape"
    value {
      type: DT_INT32
    }
  }
  attr {
    key: "_class"
    value {
      list {
        s: "loc:@loss/dense_3_loss/truediv_1"
      }
    }
  }
}
node {
  name: "training/Adadelta/gradients/loss/dense_3_loss/truediv_1_grad/Neg"
  op: "Neg"
  input: "loss/dense_3_loss/mul_1"
  attr {
    key: "T"
    value {
      type: DT_FLOAT
    }
  }
  attr {
    key: "_class"
    value {
      list {
        s: "loc:@loss/dense_3_loss/truediv_1"
      }
    }
  }
}
node {
  name: "training/Adadelta/gradients/loss/dense_3_loss/truediv_1_grad/RealDiv_1"
  op: "RealDiv"
  input: "training/Adadelta/gradients/loss/dense_3_loss/truediv_1_grad/Neg"
  input: "loss/dense_3_loss/Mean_1"
  attr {
    key: "T"
    value {
      type: DT_FLOAT
    }
  }
  attr {
    key: "_class"
    value {
      list {
        s: "loc:@loss/dense_3_loss/truediv_1"
      }
    }
  }
}
node {
  name: "training/Adadelta/gradients/loss/dense_3_loss/truediv_1_grad/RealDiv_2"
  op: "RealDiv"
  input: "training/Adadelta/gradients/loss/dense_3_loss/truediv_1_grad/RealDiv_1"
  input: "loss/dense_3_loss/Mean_1"
  attr {
    key: "T"
    value {
      type: DT_FLOAT
    }
  }
  attr {
    key: "_class"
    value {
      list {
        s: "loc:@loss/dense_3_loss/truediv_1"
      }
    }
  }
}
node {
  name: "training/Adadelta/gradients/loss/dense_3_loss/truediv_1_grad/mul"
  op: "Mul"
  input: "training/Adadelta/gradients/loss/dense_3_loss/Mean_2_grad/truediv"
  input: "training/Adadelta/gradients/loss/dense_3_loss/truediv_1_grad/RealDiv_2"
  attr {
    key: "T"
    value {
      type: DT_FLOAT
    }
  }
  attr {
    key: "_class"
    value {
      list {
        s: "loc:@loss/dense_3_loss/truediv_1"
      }
    }
  }
}
node {
  name: "training/Adadelta/gradients/loss/dense_3_loss/truediv_1_grad/Sum_1"
  op: "Sum"
  input: "training/Adadelta/gradients/loss/dense_3_loss/truediv_1_grad/mul"
  input: "training/Adadelta/gradients/loss/dense_3_loss/truediv_1_grad/BroadcastGradientArgs:1"
  attr {
    key: "T"
    value {
      type: DT_FLOAT
    }
  }
  attr {
    key: "Tidx"
    value {
      type: DT_INT32
    }
  }
  attr {
    key: "_class"
    value {
      list {
        s: "loc:@loss/dense_3_loss/truediv_1"
      }
    }
  }
  attr {
    key: "keep_dims"
    value {
      b: false
    }
  }
}
node {
  name: "training/Adadelta/gradients/loss/dense_3_loss/truediv_1_grad/Reshape_1"
  op: "Reshape"
  input: "training/Adadelta/gradients/loss/dense_3_loss/truediv_1_grad/Sum_1"
  input: "training/Adadelta/gradients/loss/dense_3_loss/truediv_1_grad/Shape_1"
  attr {
    key: "T"
    value {
      type: DT_FLOAT
    }
  }
  attr {
    key: "Tshape"
    value {
      type: DT_INT32
    }
  }
  attr {
    key: "_class"
    value {
      list {
        s: "loc:@loss/dense_3_loss/truediv_1"
      }
    }
  }
}
node {
  name: "training/Adadelta/gradients/loss/dense_3_loss/mul_1_grad/Shape"
  op: "Shape"
  input: "loss/dense_3_loss/Mean"
  attr {
    key: "T"
    value {
      type: DT_FLOAT
    }
  }
  attr {
    key: "_class"
    value {
      list {
        s: "loc:@loss/dense_3_loss/mul_1"
      }
    }
  }
  attr {
    key: "out_type"
    value {
      type: DT_INT32
    }
  }
}
node {
  name: "training/Adadelta/gradients/loss/dense_3_loss/mul_1_grad/Shape_1"
  op: "Shape"
  input: "dense_3_sample_weights"
  attr {
    key: "T"
    value {
      type: DT_FLOAT
    }
  }
  attr {
    key: "_class"
    value {
      list {
        s: "loc:@loss/dense_3_loss/mul_1"
      }
    }
  }
  attr {
    key: "out_type"
    value {
      type: DT_INT32
    }
  }
}
node {
  name: "training/Adadelta/gradients/loss/dense_3_loss/mul_1_grad/BroadcastGradientArgs"
  op: "BroadcastGradientArgs"
  input: "training/Adadelta/gradients/loss/dense_3_loss/mul_1_grad/Shape"
  input: "training/Adadelta/gradients/loss/dense_3_loss/mul_1_grad/Shape_1"
  attr {
    key: "T"
    value {
      type: DT_INT32
    }
  }
  attr {
    key: "_class"
    value {
      list {
        s: "loc:@loss/dense_3_loss/mul_1"
      }
    }
  }
}
node {
  name: "training/Adadelta/gradients/loss/dense_3_loss/mul_1_grad/Mul"
  op: "Mul"
  input: "training/Adadelta/gradients/loss/dense_3_loss/truediv_1_grad/Reshape"
  input: "dense_3_sample_weights"
  attr {
    key: "T"
    value {
      type: DT_FLOAT
    }
  }
  attr {
    key: "_class"
    value {
      list {
        s: "loc:@loss/dense_3_loss/mul_1"
      }
    }
  }
}
node {
  name: "training/Adadelta/gradients/loss/dense_3_loss/mul_1_grad/Sum"
  op: "Sum"
  input: "training/Adadelta/gradients/loss/dense_3_loss/mul_1_grad/Mul"
  input: "training/Adadelta/gradients/loss/dense_3_loss/mul_1_grad/BroadcastGradientArgs"
  attr {
    key: "T"
    value {
      type: DT_FLOAT
    }
  }
  attr {
    key: "Tidx"
    value {
      type: DT_INT32
    }
  }
  attr {
    key: "_class"
    value {
      list {
        s: "loc:@loss/dense_3_loss/mul_1"
      }
    }
  }
  attr {
    key: "keep_dims"
    value {
      b: false
    }
  }
}
node {
  name: "training/Adadelta/gradients/loss/dense_3_loss/mul_1_grad/Reshape"
  op: "Reshape"
  input: "training/Adadelta/gradients/loss/dense_3_loss/mul_1_grad/Sum"
  input: "training/Adadelta/gradients/loss/dense_3_loss/mul_1_grad/Shape"
  attr {
    key: "T"
    value {
      type: DT_FLOAT
    }
  }
  attr {
    key: "Tshape"
    value {
      type: DT_INT32
    }
  }
  attr {
    key: "_class"
    value {
      list {
        s: "loc:@loss/dense_3_loss/mul_1"
      }
    }
  }
}
node {
  name: "training/Adadelta/gradients/loss/dense_3_loss/mul_1_grad/Mul_1"
  op: "Mul"
  input: "loss/dense_3_loss/Mean"
  input: "training/Adadelta/gradients/loss/dense_3_loss/truediv_1_grad/Reshape"
  attr {
    key: "T"
    value {
      type: DT_FLOAT
    }
  }
  attr {
    key: "_class"
    value {
      list {
        s: "loc:@loss/dense_3_loss/mul_1"
      }
    }
  }
}
node {
  name: "training/Adadelta/gradients/loss/dense_3_loss/mul_1_grad/Sum_1"
  op: "Sum"
  input: "training/Adadelta/gradients/loss/dense_3_loss/mul_1_grad/Mul_1"
  input: "training/Adadelta/gradients/loss/dense_3_loss/mul_1_grad/BroadcastGradientArgs:1"
  attr {
    key: "T"
    value {
      type: DT_FLOAT
    }
  }
  attr {
    key: "Tidx"
    value {
      type: DT_INT32
    }
  }
  attr {
    key: "_class"
    value {
      list {
        s: "loc:@loss/dense_3_loss/mul_1"
      }
    }
  }
  attr {
    key: "keep_dims"
    value {
      b: false
    }
  }
}
node {
  name: "training/Adadelta/gradients/loss/dense_3_loss/mul_1_grad/Reshape_1"
  op: "Reshape"
  input: "training/Adadelta/gradients/loss/dense_3_loss/mul_1_grad/Sum_1"
  input: "training/Adadelta/gradients/loss/dense_3_loss/mul_1_grad/Shape_1"
  attr {
    key: "T"
    value {
      type: DT_FLOAT
    }
  }
  attr {
    key: "Tshape"
    value {
      type: DT_INT32
    }
  }
  attr {
    key: "_class"
    value {
      list {
        s: "loc:@loss/dense_3_loss/mul_1"
      }
    }
  }
}
node {
  name: "training/Adadelta/gradients/loss/dense_3_loss/Mean_grad/Shape"
  op: "Shape"
  input: "loss/dense_3_loss/Neg"
  attr {
    key: "T"
    value {
      type: DT_FLOAT
    }
  }
  attr {
    key: "_class"
    value {
      list {
        s: "loc:@loss/dense_3_loss/Mean"
      }
    }
  }
  attr {
    key: "out_type"
    value {
      type: DT_INT32
    }
  }
}
node {
  name: "training/Adadelta/gradients/loss/dense_3_loss/Mean_grad/Size"
  op: "Const"
  attr {
    key: "_class"
    value {
      list {
        s: "loc:@loss/dense_3_loss/Mean"
      }
    }
  }
  attr {
    key: "dtype"
    value {
      type: DT_INT32
    }
  }
  attr {
    key: "value"
    value {
      tensor {
        dtype: DT_INT32
        tensor_shape {
        }
        int_val: 1
      }
    }
  }
}
node {
  name: "training/Adadelta/gradients/loss/dense_3_loss/Mean_grad/add"
  op: "Add"
  input: "loss/dense_3_loss/Mean/reduction_indices"
  input: "training/Adadelta/gradients/loss/dense_3_loss/Mean_grad/Size"
  attr {
    key: "T"
    value {
      type: DT_INT32
    }
  }
  attr {
    key: "_class"
    value {
      list {
        s: "loc:@loss/dense_3_loss/Mean"
      }
    }
  }
}
node {
  name: "training/Adadelta/gradients/loss/dense_3_loss/Mean_grad/mod"
  op: "FloorMod"
  input: "training/Adadelta/gradients/loss/dense_3_loss/Mean_grad/add"
  input: "training/Adadelta/gradients/loss/dense_3_loss/Mean_grad/Size"
  attr {
    key: "T"
    value {
      type: DT_INT32
    }
  }
  attr {
    key: "_class"
    value {
      list {
        s: "loc:@loss/dense_3_loss/Mean"
      }
    }
  }
}
node {
  name: "training/Adadelta/gradients/loss/dense_3_loss/Mean_grad/Shape_1"
  op: "Const"
  attr {
    key: "_class"
    value {
      list {
        s: "loc:@loss/dense_3_loss/Mean"
      }
    }
  }
  attr {
    key: "dtype"
    value {
      type: DT_INT32
    }
  }
  attr {
    key: "value"
    value {
      tensor {
        dtype: DT_INT32
        tensor_shape {
          dim {
            size: 1
          }
        }
        int_val: 0
      }
    }
  }
}
node {
  name: "training/Adadelta/gradients/loss/dense_3_loss/Mean_grad/range/start"
  op: "Const"
  attr {
    key: "_class"
    value {
      list {
        s: "loc:@loss/dense_3_loss/Mean"
      }
    }
  }
  attr {
    key: "dtype"
    value {
      type: DT_INT32
    }
  }
  attr {
    key: "value"
    value {
      tensor {
        dtype: DT_INT32
        tensor_shape {
        }
        int_val: 0
      }
    }
  }
}
node {
  name: "training/Adadelta/gradients/loss/dense_3_loss/Mean_grad/range/delta"
  op: "Const"
  attr {
    key: "_class"
    value {
      list {
        s: "loc:@loss/dense_3_loss/Mean"
      }
    }
  }
  attr {
    key: "dtype"
    value {
      type: DT_INT32
    }
  }
  attr {
    key: "value"
    value {
      tensor {
        dtype: DT_INT32
        tensor_shape {
        }
        int_val: 1
      }
    }
  }
}
node {
  name: "training/Adadelta/gradients/loss/dense_3_loss/Mean_grad/range"
  op: "Range"
  input: "training/Adadelta/gradients/loss/dense_3_loss/Mean_grad/range/start"
  input: "training/Adadelta/gradients/loss/dense_3_loss/Mean_grad/Size"
  input: "training/Adadelta/gradients/loss/dense_3_loss/Mean_grad/range/delta"
  attr {
    key: "Tidx"
    value {
      type: DT_INT32
    }
  }
  attr {
    key: "_class"
    value {
      list {
        s: "loc:@loss/dense_3_loss/Mean"
      }
    }
  }
}
node {
  name: "training/Adadelta/gradients/loss/dense_3_loss/Mean_grad/Fill/value"
  op: "Const"
  attr {
    key: "_class"
    value {
      list {
        s: "loc:@loss/dense_3_loss/Mean"
      }
    }
  }
  attr {
    key: "dtype"
    value {
      type: DT_INT32
    }
  }
  attr {
    key: "value"
    value {
      tensor {
        dtype: DT_INT32
        tensor_shape {
        }
        int_val: 1
      }
    }
  }
}
node {
  name: "training/Adadelta/gradients/loss/dense_3_loss/Mean_grad/Fill"
  op: "Fill"
  input: "training/Adadelta/gradients/loss/dense_3_loss/Mean_grad/Shape_1"
  input: "training/Adadelta/gradients/loss/dense_3_loss/Mean_grad/Fill/value"
  attr {
    key: "T"
    value {
      type: DT_INT32
    }
  }
  attr {
    key: "_class"
    value {
      list {
        s: "loc:@loss/dense_3_loss/Mean"
      }
    }
  }
  attr {
    key: "index_type"
    value {
      type: DT_INT32
    }
  }
}
node {
  name: "training/Adadelta/gradients/loss/dense_3_loss/Mean_grad/DynamicStitch"
  op: "DynamicStitch"
  input: "training/Adadelta/gradients/loss/dense_3_loss/Mean_grad/range"
  input: "training/Adadelta/gradients/loss/dense_3_loss/Mean_grad/mod"
  input: "training/Adadelta/gradients/loss/dense_3_loss/Mean_grad/Shape"
  input: "training/Adadelta/gradients/loss/dense_3_loss/Mean_grad/Fill"
  attr {
    key: "N"
    value {
      i: 2
    }
  }
  attr {
    key: "T"
    value {
      type: DT_INT32
    }
  }
  attr {
    key: "_class"
    value {
      list {
        s: "loc:@loss/dense_3_loss/Mean"
      }
    }
  }
}
node {
  name: "training/Adadelta/gradients/loss/dense_3_loss/Mean_grad/Maximum/y"
  op: "Const"
  attr {
    key: "_class"
    value {
      list {
        s: "loc:@loss/dense_3_loss/Mean"
      }
    }
  }
  attr {
    key: "dtype"
    value {
      type: DT_INT32
    }
  }
  attr {
    key: "value"
    value {
      tensor {
        dtype: DT_INT32
        tensor_shape {
        }
        int_val: 1
      }
    }
  }
}
node {
  name: "training/Adadelta/gradients/loss/dense_3_loss/Mean_grad/Maximum"
  op: "Maximum"
  input: "training/Adadelta/gradients/loss/dense_3_loss/Mean_grad/DynamicStitch"
  input: "training/Adadelta/gradients/loss/dense_3_loss/Mean_grad/Maximum/y"
  attr {
    key: "T"
    value {
      type: DT_INT32
    }
  }
  attr {
    key: "_class"
    value {
      list {
        s: "loc:@loss/dense_3_loss/Mean"
      }
    }
  }
}
node {
  name: "training/Adadelta/gradients/loss/dense_3_loss/Mean_grad/floordiv"
  op: "FloorDiv"
  input: "training/Adadelta/gradients/loss/dense_3_loss/Mean_grad/Shape"
  input: "training/Adadelta/gradients/loss/dense_3_loss/Mean_grad/Maximum"
  attr {
    key: "T"
    value {
      type: DT_INT32
    }
  }
  attr {
    key: "_class"
    value {
      list {
        s: "loc:@loss/dense_3_loss/Mean"
      }
    }
  }
}
node {
  name: "training/Adadelta/gradients/loss/dense_3_loss/Mean_grad/Reshape"
  op: "Reshape"
  input: "training/Adadelta/gradients/loss/dense_3_loss/mul_1_grad/Reshape"
  input: "training/Adadelta/gradients/loss/dense_3_loss/Mean_grad/DynamicStitch"
  attr {
    key: "T"
    value {
      type: DT_FLOAT
    }
  }
  attr {
    key: "Tshape"
    value {
      type: DT_INT32
    }
  }
  attr {
    key: "_class"
    value {
      list {
        s: "loc:@loss/dense_3_loss/Mean"
      }
    }
  }
}
node {
  name: "training/Adadelta/gradients/loss/dense_3_loss/Mean_grad/Tile"
  op: "Tile"
  input: "training/Adadelta/gradients/loss/dense_3_loss/Mean_grad/Reshape"
  input: "training/Adadelta/gradients/loss/dense_3_loss/Mean_grad/floordiv"
  attr {
    key: "T"
    value {
      type: DT_FLOAT
    }
  }
  attr {
    key: "Tmultiples"
    value {
      type: DT_INT32
    }
  }
  attr {
    key: "_class"
    value {
      list {
        s: "loc:@loss/dense_3_loss/Mean"
      }
    }
  }
}
node {
  name: "training/Adadelta/gradients/loss/dense_3_loss/Mean_grad/Shape_2"
  op: "Shape"
  input: "loss/dense_3_loss/Neg"
  attr {
    key: "T"
    value {
      type: DT_FLOAT
    }
  }
  attr {
    key: "_class"
    value {
      list {
        s: "loc:@loss/dense_3_loss/Mean"
      }
    }
  }
  attr {
    key: "out_type"
    value {
      type: DT_INT32
    }
  }
}
node {
  name: "training/Adadelta/gradients/loss/dense_3_loss/Mean_grad/Shape_3"
  op: "Shape"
  input: "loss/dense_3_loss/Mean"
  attr {
    key: "T"
    value {
      type: DT_FLOAT
    }
  }
  attr {
    key: "_class"
    value {
      list {
        s: "loc:@loss/dense_3_loss/Mean"
      }
    }
  }
  attr {
    key: "out_type"
    value {
      type: DT_INT32
    }
  }
}
node {
  name: "training/Adadelta/gradients/loss/dense_3_loss/Mean_grad/Const"
  op: "Const"
  attr {
    key: "_class"
    value {
      list {
        s: "loc:@loss/dense_3_loss/Mean"
      }
    }
  }
  attr {
    key: "dtype"
    value {
      type: DT_INT32
    }
  }
  attr {
    key: "value"
    value {
      tensor {
        dtype: DT_INT32
        tensor_shape {
          dim {
            size: 1
          }
        }
        int_val: 0
      }
    }
  }
}
node {
  name: "training/Adadelta/gradients/loss/dense_3_loss/Mean_grad/Prod"
  op: "Prod"
  input: "training/Adadelta/gradients/loss/dense_3_loss/Mean_grad/Shape_2"
  input: "training/Adadelta/gradients/loss/dense_3_loss/Mean_grad/Const"
  attr {
    key: "T"
    value {
      type: DT_INT32
    }
  }
  attr {
    key: "Tidx"
    value {
      type: DT_INT32
    }
  }
  attr {
    key: "_class"
    value {
      list {
        s: "loc:@loss/dense_3_loss/Mean"
      }
    }
  }
  attr {
    key: "keep_dims"
    value {
      b: false
    }
  }
}
node {
  name: "training/Adadelta/gradients/loss/dense_3_loss/Mean_grad/Const_1"
  op: "Const"
  attr {
    key: "_class"
    value {
      list {
        s: "loc:@loss/dense_3_loss/Mean"
      }
    }
  }
  attr {
    key: "dtype"
    value {
      type: DT_INT32
    }
  }
  attr {
    key: "value"
    value {
      tensor {
        dtype: DT_INT32
        tensor_shape {
          dim {
            size: 1
          }
        }
        int_val: 0
      }
    }
  }
}
node {
  name: "training/Adadelta/gradients/loss/dense_3_loss/Mean_grad/Prod_1"
  op: "Prod"
  input: "training/Adadelta/gradients/loss/dense_3_loss/Mean_grad/Shape_3"
  input: "training/Adadelta/gradients/loss/dense_3_loss/Mean_grad/Const_1"
  attr {
    key: "T"
    value {
      type: DT_INT32
    }
  }
  attr {
    key: "Tidx"
    value {
      type: DT_INT32
    }
  }
  attr {
    key: "_class"
    value {
      list {
        s: "loc:@loss/dense_3_loss/Mean"
      }
    }
  }
  attr {
    key: "keep_dims"
    value {
      b: false
    }
  }
}
node {
  name: "training/Adadelta/gradients/loss/dense_3_loss/Mean_grad/Maximum_1/y"
  op: "Const"
  attr {
    key: "_class"
    value {
      list {
        s: "loc:@loss/dense_3_loss/Mean"
      }
    }
  }
  attr {
    key: "dtype"
    value {
      type: DT_INT32
    }
  }
  attr {
    key: "value"
    value {
      tensor {
        dtype: DT_INT32
        tensor_shape {
        }
        int_val: 1
      }
    }
  }
}
node {
  name: "training/Adadelta/gradients/loss/dense_3_loss/Mean_grad/Maximum_1"
  op: "Maximum"
  input: "training/Adadelta/gradients/loss/dense_3_loss/Mean_grad/Prod_1"
  input: "training/Adadelta/gradients/loss/dense_3_loss/Mean_grad/Maximum_1/y"
  attr {
    key: "T"
    value {
      type: DT_INT32
    }
  }
  attr {
    key: "_class"
    value {
      list {
        s: "loc:@loss/dense_3_loss/Mean"
      }
    }
  }
}
node {
  name: "training/Adadelta/gradients/loss/dense_3_loss/Mean_grad/floordiv_1"
  op: "FloorDiv"
  input: "training/Adadelta/gradients/loss/dense_3_loss/Mean_grad/Prod"
  input: "training/Adadelta/gradients/loss/dense_3_loss/Mean_grad/Maximum_1"
  attr {
    key: "T"
    value {
      type: DT_INT32
    }
  }
  attr {
    key: "_class"
    value {
      list {
        s: "loc:@loss/dense_3_loss/Mean"
      }
    }
  }
}
node {
  name: "training/Adadelta/gradients/loss/dense_3_loss/Mean_grad/Cast"
  op: "Cast"
  input: "training/Adadelta/gradients/loss/dense_3_loss/Mean_grad/floordiv_1"
  attr {
    key: "DstT"
    value {
      type: DT_FLOAT
    }
  }
  attr {
    key: "SrcT"
    value {
      type: DT_INT32
    }
  }
  attr {
    key: "_class"
    value {
      list {
        s: "loc:@loss/dense_3_loss/Mean"
      }
    }
  }
}
node {
  name: "training/Adadelta/gradients/loss/dense_3_loss/Mean_grad/truediv"
  op: "RealDiv"
  input: "training/Adadelta/gradients/loss/dense_3_loss/Mean_grad/Tile"
  input: "training/Adadelta/gradients/loss/dense_3_loss/Mean_grad/Cast"
  attr {
    key: "T"
    value {
      type: DT_FLOAT
    }
  }
  attr {
    key: "_class"
    value {
      list {
        s: "loc:@loss/dense_3_loss/Mean"
      }
    }
  }
}
node {
  name: "training/Adadelta/gradients/loss/dense_3_loss/Neg_grad/Neg"
  op: "Neg"
  input: "training/Adadelta/gradients/loss/dense_3_loss/Mean_grad/truediv"
  attr {
    key: "T"
    value {
      type: DT_FLOAT
    }
  }
  attr {
    key: "_class"
    value {
      list {
        s: "loc:@loss/dense_3_loss/Neg"
      }
    }
  }
}
node {
  name: "training/Adadelta/gradients/loss/dense_3_loss/Sum_1_grad/Shape"
  op: "Shape"
  input: "loss/dense_3_loss/mul"
  attr {
    key: "T"
    value {
      type: DT_FLOAT
    }
  }
  attr {
    key: "_class"
    value {
      list {
        s: "loc:@loss/dense_3_loss/Sum_1"
      }
    }
  }
  attr {
    key: "out_type"
    value {
      type: DT_INT32
    }
  }
}
node {
  name: "training/Adadelta/gradients/loss/dense_3_loss/Sum_1_grad/Size"
  op: "Const"
  attr {
    key: "_class"
    value {
      list {
        s: "loc:@loss/dense_3_loss/Sum_1"
      }
    }
  }
  attr {
    key: "dtype"
    value {
      type: DT_INT32
    }
  }
  attr {
    key: "value"
    value {
      tensor {
        dtype: DT_INT32
        tensor_shape {
        }
        int_val: 2
      }
    }
  }
}
node {
  name: "training/Adadelta/gradients/loss/dense_3_loss/Sum_1_grad/add"
  op: "Add"
  input: "loss/dense_3_loss/Sum_1/reduction_indices"
  input: "training/Adadelta/gradients/loss/dense_3_loss/Sum_1_grad/Size"
  attr {
    key: "T"
    value {
      type: DT_INT32
    }
  }
  attr {
    key: "_class"
    value {
      list {
        s: "loc:@loss/dense_3_loss/Sum_1"
      }
    }
  }
}
node {
  name: "training/Adadelta/gradients/loss/dense_3_loss/Sum_1_grad/mod"
  op: "FloorMod"
  input: "training/Adadelta/gradients/loss/dense_3_loss/Sum_1_grad/add"
  input: "training/Adadelta/gradients/loss/dense_3_loss/Sum_1_grad/Size"
  attr {
    key: "T"
    value {
      type: DT_INT32
    }
  }
  attr {
    key: "_class"
    value {
      list {
        s: "loc:@loss/dense_3_loss/Sum_1"
      }
    }
  }
}
node {
  name: "training/Adadelta/gradients/loss/dense_3_loss/Sum_1_grad/Shape_1"
  op: "Const"
  attr {
    key: "_class"
    value {
      list {
        s: "loc:@loss/dense_3_loss/Sum_1"
      }
    }
  }
  attr {
    key: "dtype"
    value {
      type: DT_INT32
    }
  }
  attr {
    key: "value"
    value {
      tensor {
        dtype: DT_INT32
        tensor_shape {
          dim {
          }
        }
      }
    }
  }
}
node {
  name: "training/Adadelta/gradients/loss/dense_3_loss/Sum_1_grad/range/start"
  op: "Const"
  attr {
    key: "_class"
    value {
      list {
        s: "loc:@loss/dense_3_loss/Sum_1"
      }
    }
  }
  attr {
    key: "dtype"
    value {
      type: DT_INT32
    }
  }
  attr {
    key: "value"
    value {
      tensor {
        dtype: DT_INT32
        tensor_shape {
        }
        int_val: 0
      }
    }
  }
}
node {
  name: "training/Adadelta/gradients/loss/dense_3_loss/Sum_1_grad/range/delta"
  op: "Const"
  attr {
    key: "_class"
    value {
      list {
        s: "loc:@loss/dense_3_loss/Sum_1"
      }
    }
  }
  attr {
    key: "dtype"
    value {
      type: DT_INT32
    }
  }
  attr {
    key: "value"
    value {
      tensor {
        dtype: DT_INT32
        tensor_shape {
        }
        int_val: 1
      }
    }
  }
}
node {
  name: "training/Adadelta/gradients/loss/dense_3_loss/Sum_1_grad/range"
  op: "Range"
  input: "training/Adadelta/gradients/loss/dense_3_loss/Sum_1_grad/range/start"
  input: "training/Adadelta/gradients/loss/dense_3_loss/Sum_1_grad/Size"
  input: "training/Adadelta/gradients/loss/dense_3_loss/Sum_1_grad/range/delta"
  attr {
    key: "Tidx"
    value {
      type: DT_INT32
    }
  }
  attr {
    key: "_class"
    value {
      list {
        s: "loc:@loss/dense_3_loss/Sum_1"
      }
    }
  }
}
node {
  name: "training/Adadelta/gradients/loss/dense_3_loss/Sum_1_grad/Fill/value"
  op: "Const"
  attr {
    key: "_class"
    value {
      list {
        s: "loc:@loss/dense_3_loss/Sum_1"
      }
    }
  }
  attr {
    key: "dtype"
    value {
      type: DT_INT32
    }
  }
  attr {
    key: "value"
    value {
      tensor {
        dtype: DT_INT32
        tensor_shape {
        }
        int_val: 1
      }
    }
  }
}
node {
  name: "training/Adadelta/gradients/loss/dense_3_loss/Sum_1_grad/Fill"
  op: "Fill"
  input: "training/Adadelta/gradients/loss/dense_3_loss/Sum_1_grad/Shape_1"
  input: "training/Adadelta/gradients/loss/dense_3_loss/Sum_1_grad/Fill/value"
  attr {
    key: "T"
    value {
      type: DT_INT32
    }
  }
  attr {
    key: "_class"
    value {
      list {
        s: "loc:@loss/dense_3_loss/Sum_1"
      }
    }
  }
  attr {
    key: "index_type"
    value {
      type: DT_INT32
    }
  }
}
node {
  name: "training/Adadelta/gradients/loss/dense_3_loss/Sum_1_grad/DynamicStitch"
  op: "DynamicStitch"
  input: "training/Adadelta/gradients/loss/dense_3_loss/Sum_1_grad/range"
  input: "training/Adadelta/gradients/loss/dense_3_loss/Sum_1_grad/mod"
  input: "training/Adadelta/gradients/loss/dense_3_loss/Sum_1_grad/Shape"
  input: "training/Adadelta/gradients/loss/dense_3_loss/Sum_1_grad/Fill"
  attr {
    key: "N"
    value {
      i: 2
    }
  }
  attr {
    key: "T"
    value {
      type: DT_INT32
    }
  }
  attr {
    key: "_class"
    value {
      list {
        s: "loc:@loss/dense_3_loss/Sum_1"
      }
    }
  }
}
node {
  name: "training/Adadelta/gradients/loss/dense_3_loss/Sum_1_grad/Maximum/y"
  op: "Const"
  attr {
    key: "_class"
    value {
      list {
        s: "loc:@loss/dense_3_loss/Sum_1"
      }
    }
  }
  attr {
    key: "dtype"
    value {
      type: DT_INT32
    }
  }
  attr {
    key: "value"
    value {
      tensor {
        dtype: DT_INT32
        tensor_shape {
        }
        int_val: 1
      }
    }
  }
}
node {
  name: "training/Adadelta/gradients/loss/dense_3_loss/Sum_1_grad/Maximum"
  op: "Maximum"
  input: "training/Adadelta/gradients/loss/dense_3_loss/Sum_1_grad/DynamicStitch"
  input: "training/Adadelta/gradients/loss/dense_3_loss/Sum_1_grad/Maximum/y"
  attr {
    key: "T"
    value {
      type: DT_INT32
    }
  }
  attr {
    key: "_class"
    value {
      list {
        s: "loc:@loss/dense_3_loss/Sum_1"
      }
    }
  }
}
node {
  name: "training/Adadelta/gradients/loss/dense_3_loss/Sum_1_grad/floordiv"
  op: "FloorDiv"
  input: "training/Adadelta/gradients/loss/dense_3_loss/Sum_1_grad/Shape"
  input: "training/Adadelta/gradients/loss/dense_3_loss/Sum_1_grad/Maximum"
  attr {
    key: "T"
    value {
      type: DT_INT32
    }
  }
  attr {
    key: "_class"
    value {
      list {
        s: "loc:@loss/dense_3_loss/Sum_1"
      }
    }
  }
}
node {
  name: "training/Adadelta/gradients/loss/dense_3_loss/Sum_1_grad/Reshape"
  op: "Reshape"
  input: "training/Adadelta/gradients/loss/dense_3_loss/Neg_grad/Neg"
  input: "training/Adadelta/gradients/loss/dense_3_loss/Sum_1_grad/DynamicStitch"
  attr {
    key: "T"
    value {
      type: DT_FLOAT
    }
  }
  attr {
    key: "Tshape"
    value {
      type: DT_INT32
    }
  }
  attr {
    key: "_class"
    value {
      list {
        s: "loc:@loss/dense_3_loss/Sum_1"
      }
    }
  }
}
node {
  name: "training/Adadelta/gradients/loss/dense_3_loss/Sum_1_grad/Tile"
  op: "Tile"
  input: "training/Adadelta/gradients/loss/dense_3_loss/Sum_1_grad/Reshape"
  input: "training/Adadelta/gradients/loss/dense_3_loss/Sum_1_grad/floordiv"
  attr {
    key: "T"
    value {
      type: DT_FLOAT
    }
  }
  attr {
    key: "Tmultiples"
    value {
      type: DT_INT32
    }
  }
  attr {
    key: "_class"
    value {
      list {
        s: "loc:@loss/dense_3_loss/Sum_1"
      }
    }
  }
}
node {
  name: "training/Adadelta/gradients/loss/dense_3_loss/mul_grad/Shape"
  op: "Shape"
  input: "dense_3_target"
  attr {
    key: "T"
    value {
      type: DT_FLOAT
    }
  }
  attr {
    key: "_class"
    value {
      list {
        s: "loc:@loss/dense_3_loss/mul"
      }
    }
  }
  attr {
    key: "out_type"
    value {
      type: DT_INT32
    }
  }
}
node {
  name: "training/Adadelta/gradients/loss/dense_3_loss/mul_grad/Shape_1"
  op: "Shape"
  input: "loss/dense_3_loss/Log"
  attr {
    key: "T"
    value {
      type: DT_FLOAT
    }
  }
  attr {
    key: "_class"
    value {
      list {
        s: "loc:@loss/dense_3_loss/mul"
      }
    }
  }
  attr {
    key: "out_type"
    value {
      type: DT_INT32
    }
  }
}
node {
  name: "training/Adadelta/gradients/loss/dense_3_loss/mul_grad/BroadcastGradientArgs"
  op: "BroadcastGradientArgs"
  input: "training/Adadelta/gradients/loss/dense_3_loss/mul_grad/Shape"
  input: "training/Adadelta/gradients/loss/dense_3_loss/mul_grad/Shape_1"
  attr {
    key: "T"
    value {
      type: DT_INT32
    }
  }
  attr {
    key: "_class"
    value {
      list {
        s: "loc:@loss/dense_3_loss/mul"
      }
    }
  }
}
node {
  name: "training/Adadelta/gradients/loss/dense_3_loss/mul_grad/Mul"
  op: "Mul"
  input: "training/Adadelta/gradients/loss/dense_3_loss/Sum_1_grad/Tile"
  input: "loss/dense_3_loss/Log"
  attr {
    key: "T"
    value {
      type: DT_FLOAT
    }
  }
  attr {
    key: "_class"
    value {
      list {
        s: "loc:@loss/dense_3_loss/mul"
      }
    }
  }
}
node {
  name: "training/Adadelta/gradients/loss/dense_3_loss/mul_grad/Sum"
  op: "Sum"
  input: "training/Adadelta/gradients/loss/dense_3_loss/mul_grad/Mul"
  input: "training/Adadelta/gradients/loss/dense_3_loss/mul_grad/BroadcastGradientArgs"
  attr {
    key: "T"
    value {
      type: DT_FLOAT
    }
  }
  attr {
    key: "Tidx"
    value {
      type: DT_INT32
    }
  }
  attr {
    key: "_class"
    value {
      list {
        s: "loc:@loss/dense_3_loss/mul"
      }
    }
  }
  attr {
    key: "keep_dims"
    value {
      b: false
    }
  }
}
node {
  name: "training/Adadelta/gradients/loss/dense_3_loss/mul_grad/Reshape"
  op: "Reshape"
  input: "training/Adadelta/gradients/loss/dense_3_loss/mul_grad/Sum"
  input: "training/Adadelta/gradients/loss/dense_3_loss/mul_grad/Shape"
  attr {
    key: "T"
    value {
      type: DT_FLOAT
    }
  }
  attr {
    key: "Tshape"
    value {
      type: DT_INT32
    }
  }
  attr {
    key: "_class"
    value {
      list {
        s: "loc:@loss/dense_3_loss/mul"
      }
    }
  }
}
node {
  name: "training/Adadelta/gradients/loss/dense_3_loss/mul_grad/Mul_1"
  op: "Mul"
  input: "dense_3_target"
  input: "training/Adadelta/gradients/loss/dense_3_loss/Sum_1_grad/Tile"
  attr {
    key: "T"
    value {
      type: DT_FLOAT
    }
  }
  attr {
    key: "_class"
    value {
      list {
        s: "loc:@loss/dense_3_loss/mul"
      }
    }
  }
}
node {
  name: "training/Adadelta/gradients/loss/dense_3_loss/mul_grad/Sum_1"
  op: "Sum"
  input: "training/Adadelta/gradients/loss/dense_3_loss/mul_grad/Mul_1"
  input: "training/Adadelta/gradients/loss/dense_3_loss/mul_grad/BroadcastGradientArgs:1"
  attr {
    key: "T"
    value {
      type: DT_FLOAT
    }
  }
  attr {
    key: "Tidx"
    value {
      type: DT_INT32
    }
  }
  attr {
    key: "_class"
    value {
      list {
        s: "loc:@loss/dense_3_loss/mul"
      }
    }
  }
  attr {
    key: "keep_dims"
    value {
      b: false
    }
  }
}
node {
  name: "training/Adadelta/gradients/loss/dense_3_loss/mul_grad/Reshape_1"
  op: "Reshape"
  input: "training/Adadelta/gradients/loss/dense_3_loss/mul_grad/Sum_1"
  input: "training/Adadelta/gradients/loss/dense_3_loss/mul_grad/Shape_1"
  attr {
    key: "T"
    value {
      type: DT_FLOAT
    }
  }
  attr {
    key: "Tshape"
    value {
      type: DT_INT32
    }
  }
  attr {
    key: "_class"
    value {
      list {
        s: "loc:@loss/dense_3_loss/mul"
      }
    }
  }
}
node {
  name: "training/Adadelta/gradients/loss/dense_3_loss/Log_grad/Reciprocal"
  op: "Reciprocal"
  input: "loss/dense_3_loss/clip_by_value"
  input: "^training/Adadelta/gradients/loss/dense_3_loss/mul_grad/Reshape_1"
  attr {
    key: "T"
    value {
      type: DT_FLOAT
    }
  }
  attr {
    key: "_class"
    value {
      list {
        s: "loc:@loss/dense_3_loss/Log"
      }
    }
  }
}
node {
  name: "training/Adadelta/gradients/loss/dense_3_loss/Log_grad/mul"
  op: "Mul"
  input: "training/Adadelta/gradients/loss/dense_3_loss/mul_grad/Reshape_1"
  input: "training/Adadelta/gradients/loss/dense_3_loss/Log_grad/Reciprocal"
  attr {
    key: "T"
    value {
      type: DT_FLOAT
    }
  }
  attr {
    key: "_class"
    value {
      list {
        s: "loc:@loss/dense_3_loss/Log"
      }
    }
  }
}
node {
  name: "training/Adadelta/gradients/loss/dense_3_loss/clip_by_value_grad/Shape"
  op: "Shape"
  input: "loss/dense_3_loss/truediv"
  attr {
    key: "T"
    value {
      type: DT_FLOAT
    }
  }
  attr {
    key: "_class"
    value {
      list {
        s: "loc:@loss/dense_3_loss/clip_by_value"
      }
    }
  }
  attr {
    key: "out_type"
    value {
      type: DT_INT32
    }
  }
}
node {
  name: "training/Adadelta/gradients/loss/dense_3_loss/clip_by_value_grad/Shape_1"
  op: "Const"
  attr {
    key: "_class"
    value {
      list {
        s: "loc:@loss/dense_3_loss/clip_by_value"
      }
    }
  }
  attr {
    key: "dtype"
    value {
      type: DT_INT32
    }
  }
  attr {
    key: "value"
    value {
      tensor {
        dtype: DT_INT32
        tensor_shape {
          dim {
          }
        }
      }
    }
  }
}
node {
  name: "training/Adadelta/gradients/loss/dense_3_loss/clip_by_value_grad/Shape_2"
  op: "Const"
  attr {
    key: "_class"
    value {
      list {
        s: "loc:@loss/dense_3_loss/clip_by_value"
      }
    }
  }
  attr {
    key: "dtype"
    value {
      type: DT_INT32
    }
  }
  attr {
    key: "value"
    value {
      tensor {
        dtype: DT_INT32
        tensor_shape {
          dim {
          }
        }
      }
    }
  }
}
node {
  name: "training/Adadelta/gradients/loss/dense_3_loss/clip_by_value_grad/Shape_3"
  op: "Shape"
  input: "training/Adadelta/gradients/loss/dense_3_loss/Log_grad/mul"
  attr {
    key: "T"
    value {
      type: DT_FLOAT
    }
  }
  attr {
    key: "_class"
    value {
      list {
        s: "loc:@loss/dense_3_loss/clip_by_value"
      }
    }
  }
  attr {
    key: "out_type"
    value {
      type: DT_INT32
    }
  }
}
node {
  name: "training/Adadelta/gradients/loss/dense_3_loss/clip_by_value_grad/zeros/Const"
  op: "Const"
  attr {
    key: "_class"
    value {
      list {
        s: "loc:@loss/dense_3_loss/clip_by_value"
      }
    }
  }
  attr {
    key: "dtype"
    value {
      type: DT_FLOAT
    }
  }
  attr {
    key: "value"
    value {
      tensor {
        dtype: DT_FLOAT
        tensor_shape {
        }
        float_val: 0.0
      }
    }
  }
}
node {
  name: "training/Adadelta/gradients/loss/dense_3_loss/clip_by_value_grad/zeros"
  op: "Fill"
  input: "training/Adadelta/gradients/loss/dense_3_loss/clip_by_value_grad/Shape_3"
  input: "training/Adadelta/gradients/loss/dense_3_loss/clip_by_value_grad/zeros/Const"
  attr {
    key: "T"
    value {
      type: DT_FLOAT
    }
  }
  attr {
    key: "_class"
    value {
      list {
        s: "loc:@loss/dense_3_loss/clip_by_value"
      }
    }
  }
  attr {
    key: "index_type"
    value {
      type: DT_INT32
    }
  }
}
node {
  name: "training/Adadelta/gradients/loss/dense_3_loss/clip_by_value_grad/Less"
  op: "Less"
  input: "loss/dense_3_loss/truediv"
  input: "loss/dense_3_loss/Const"
  attr {
    key: "T"
    value {
      type: DT_FLOAT
    }
  }
  attr {
    key: "_class"
    value {
      list {
        s: "loc:@loss/dense_3_loss/clip_by_value"
      }
    }
  }
}
node {
  name: "training/Adadelta/gradients/loss/dense_3_loss/clip_by_value_grad/Greater"
  op: "Greater"
  input: "loss/dense_3_loss/truediv"
  input: "loss/dense_3_loss/sub"
  attr {
    key: "T"
    value {
      type: DT_FLOAT
    }
  }
  attr {
    key: "_class"
    value {
      list {
        s: "loc:@loss/dense_3_loss/clip_by_value"
      }
    }
  }
}
node {
  name: "training/Adadelta/gradients/loss/dense_3_loss/clip_by_value_grad/BroadcastGradientArgs"
  op: "BroadcastGradientArgs"
  input: "training/Adadelta/gradients/loss/dense_3_loss/clip_by_value_grad/Shape"
  input: "training/Adadelta/gradients/loss/dense_3_loss/clip_by_value_grad/Shape_1"
  attr {
    key: "T"
    value {
      type: DT_INT32
    }
  }
  attr {
    key: "_class"
    value {
      list {
        s: "loc:@loss/dense_3_loss/clip_by_value"
      }
    }
  }
}
node {
  name: "training/Adadelta/gradients/loss/dense_3_loss/clip_by_value_grad/BroadcastGradientArgs_1"
  op: "BroadcastGradientArgs"
  input: "training/Adadelta/gradients/loss/dense_3_loss/clip_by_value_grad/Shape"
  input: "training/Adadelta/gradients/loss/dense_3_loss/clip_by_value_grad/Shape_2"
  attr {
    key: "T"
    value {
      type: DT_INT32
    }
  }
  attr {
    key: "_class"
    value {
      list {
        s: "loc:@loss/dense_3_loss/clip_by_value"
      }
    }
  }
}
node {
  name: "training/Adadelta/gradients/loss/dense_3_loss/clip_by_value_grad/LogicalOr"
  op: "LogicalOr"
  input: "training/Adadelta/gradients/loss/dense_3_loss/clip_by_value_grad/Less"
  input: "training/Adadelta/gradients/loss/dense_3_loss/clip_by_value_grad/Greater"
  attr {
    key: "_class"
    value {
      list {
        s: "loc:@loss/dense_3_loss/clip_by_value"
      }
    }
  }
}
node {
  name: "training/Adadelta/gradients/loss/dense_3_loss/clip_by_value_grad/Select"
  op: "Select"
  input: "training/Adadelta/gradients/loss/dense_3_loss/clip_by_value_grad/LogicalOr"
  input: "training/Adadelta/gradients/loss/dense_3_loss/clip_by_value_grad/zeros"
  input: "training/Adadelta/gradients/loss/dense_3_loss/Log_grad/mul"
  attr {
    key: "T"
    value {
      type: DT_FLOAT
    }
  }
  attr {
    key: "_class"
    value {
      list {
        s: "loc:@loss/dense_3_loss/clip_by_value"
      }
    }
  }
}
node {
  name: "training/Adadelta/gradients/loss/dense_3_loss/clip_by_value_grad/Select_1"
  op: "Select"
  input: "training/Adadelta/gradients/loss/dense_3_loss/clip_by_value_grad/Less"
  input: "training/Adadelta/gradients/loss/dense_3_loss/Log_grad/mul"
  input: "training/Adadelta/gradients/loss/dense_3_loss/clip_by_value_grad/zeros"
  attr {
    key: "T"
    value {
      type: DT_FLOAT
    }
  }
  attr {
    key: "_class"
    value {
      list {
        s: "loc:@loss/dense_3_loss/clip_by_value"
      }
    }
  }
}
node {
  name: "training/Adadelta/gradients/loss/dense_3_loss/clip_by_value_grad/Select_2"
  op: "Select"
  input: "training/Adadelta/gradients/loss/dense_3_loss/clip_by_value_grad/Greater"
  input: "training/Adadelta/gradients/loss/dense_3_loss/Log_grad/mul"
  input: "training/Adadelta/gradients/loss/dense_3_loss/clip_by_value_grad/zeros"
  attr {
    key: "T"
    value {
      type: DT_FLOAT
    }
  }
  attr {
    key: "_class"
    value {
      list {
        s: "loc:@loss/dense_3_loss/clip_by_value"
      }
    }
  }
}
node {
  name: "training/Adadelta/gradients/loss/dense_3_loss/clip_by_value_grad/Sum"
  op: "Sum"
  input: "training/Adadelta/gradients/loss/dense_3_loss/clip_by_value_grad/Select"
  input: "training/Adadelta/gradients/loss/dense_3_loss/clip_by_value_grad/BroadcastGradientArgs_1"
  attr {
    key: "T"
    value {
      type: DT_FLOAT
    }
  }
  attr {
    key: "Tidx"
    value {
      type: DT_INT32
    }
  }
  attr {
    key: "_class"
    value {
      list {
        s: "loc:@loss/dense_3_loss/clip_by_value"
      }
    }
  }
  attr {
    key: "keep_dims"
    value {
      b: false
    }
  }
}
node {
  name: "training/Adadelta/gradients/loss/dense_3_loss/clip_by_value_grad/Reshape"
  op: "Reshape"
  input: "training/Adadelta/gradients/loss/dense_3_loss/clip_by_value_grad/Sum"
  input: "training/Adadelta/gradients/loss/dense_3_loss/clip_by_value_grad/Shape"
  attr {
    key: "T"
    value {
      type: DT_FLOAT
    }
  }
  attr {
    key: "Tshape"
    value {
      type: DT_INT32
    }
  }
  attr {
    key: "_class"
    value {
      list {
        s: "loc:@loss/dense_3_loss/clip_by_value"
      }
    }
  }
}
node {
  name: "training/Adadelta/gradients/loss/dense_3_loss/clip_by_value_grad/Sum_1"
  op: "Sum"
  input: "training/Adadelta/gradients/loss/dense_3_loss/clip_by_value_grad/Select_1"
  input: "training/Adadelta/gradients/loss/dense_3_loss/clip_by_value_grad/BroadcastGradientArgs:1"
  attr {
    key: "T"
    value {
      type: DT_FLOAT
    }
  }
  attr {
    key: "Tidx"
    value {
      type: DT_INT32
    }
  }
  attr {
    key: "_class"
    value {
      list {
        s: "loc:@loss/dense_3_loss/clip_by_value"
      }
    }
  }
  attr {
    key: "keep_dims"
    value {
      b: false
    }
  }
}
node {
  name: "training/Adadelta/gradients/loss/dense_3_loss/clip_by_value_grad/Reshape_1"
  op: "Reshape"
  input: "training/Adadelta/gradients/loss/dense_3_loss/clip_by_value_grad/Sum_1"
  input: "training/Adadelta/gradients/loss/dense_3_loss/clip_by_value_grad/Shape_1"
  attr {
    key: "T"
    value {
      type: DT_FLOAT
    }
  }
  attr {
    key: "Tshape"
    value {
      type: DT_INT32
    }
  }
  attr {
    key: "_class"
    value {
      list {
        s: "loc:@loss/dense_3_loss/clip_by_value"
      }
    }
  }
}
node {
  name: "training/Adadelta/gradients/loss/dense_3_loss/clip_by_value_grad/Sum_2"
  op: "Sum"
  input: "training/Adadelta/gradients/loss/dense_3_loss/clip_by_value_grad/Select_2"
  input: "training/Adadelta/gradients/loss/dense_3_loss/clip_by_value_grad/BroadcastGradientArgs_1:1"
  attr {
    key: "T"
    value {
      type: DT_FLOAT
    }
  }
  attr {
    key: "Tidx"
    value {
      type: DT_INT32
    }
  }
  attr {
    key: "_class"
    value {
      list {
        s: "loc:@loss/dense_3_loss/clip_by_value"
      }
    }
  }
  attr {
    key: "keep_dims"
    value {
      b: false
    }
  }
}
node {
  name: "training/Adadelta/gradients/loss/dense_3_loss/clip_by_value_grad/Reshape_2"
  op: "Reshape"
  input: "training/Adadelta/gradients/loss/dense_3_loss/clip_by_value_grad/Sum_2"
  input: "training/Adadelta/gradients/loss/dense_3_loss/clip_by_value_grad/Shape_2"
  attr {
    key: "T"
    value {
      type: DT_FLOAT
    }
  }
  attr {
    key: "Tshape"
    value {
      type: DT_INT32
    }
  }
  attr {
    key: "_class"
    value {
      list {
        s: "loc:@loss/dense_3_loss/clip_by_value"
      }
    }
  }
}
node {
  name: "training/Adadelta/gradients/loss/dense_3_loss/truediv_grad/Shape"
  op: "Shape"
  input: "dense_3/Softmax"
  attr {
    key: "T"
    value {
      type: DT_FLOAT
    }
  }
  attr {
    key: "_class"
    value {
      list {
        s: "loc:@loss/dense_3_loss/truediv"
      }
    }
  }
  attr {
    key: "out_type"
    value {
      type: DT_INT32
    }
  }
}
node {
  name: "training/Adadelta/gradients/loss/dense_3_loss/truediv_grad/Shape_1"
  op: "Shape"
  input: "loss/dense_3_loss/Sum"
  attr {
    key: "T"
    value {
      type: DT_FLOAT
    }
  }
  attr {
    key: "_class"
    value {
      list {
        s: "loc:@loss/dense_3_loss/truediv"
      }
    }
  }
  attr {
    key: "out_type"
    value {
      type: DT_INT32
    }
  }
}
node {
  name: "training/Adadelta/gradients/loss/dense_3_loss/truediv_grad/BroadcastGradientArgs"
  op: "BroadcastGradientArgs"
  input: "training/Adadelta/gradients/loss/dense_3_loss/truediv_grad/Shape"
  input: "training/Adadelta/gradients/loss/dense_3_loss/truediv_grad/Shape_1"
  attr {
    key: "T"
    value {
      type: DT_INT32
    }
  }
  attr {
    key: "_class"
    value {
      list {
        s: "loc:@loss/dense_3_loss/truediv"
      }
    }
  }
}
node {
  name: "training/Adadelta/gradients/loss/dense_3_loss/truediv_grad/RealDiv"
  op: "RealDiv"
  input: "training/Adadelta/gradients/loss/dense_3_loss/clip_by_value_grad/Reshape"
  input: "loss/dense_3_loss/Sum"
  attr {
    key: "T"
    value {
      type: DT_FLOAT
    }
  }
  attr {
    key: "_class"
    value {
      list {
        s: "loc:@loss/dense_3_loss/truediv"
      }
    }
  }
}
node {
  name: "training/Adadelta/gradients/loss/dense_3_loss/truediv_grad/Sum"
  op: "Sum"
  input: "training/Adadelta/gradients/loss/dense_3_loss/truediv_grad/RealDiv"
  input: "training/Adadelta/gradients/loss/dense_3_loss/truediv_grad/BroadcastGradientArgs"
  attr {
    key: "T"
    value {
      type: DT_FLOAT
    }
  }
  attr {
    key: "Tidx"
    value {
      type: DT_INT32
    }
  }
  attr {
    key: "_class"
    value {
      list {
        s: "loc:@loss/dense_3_loss/truediv"
      }
    }
  }
  attr {
    key: "keep_dims"
    value {
      b: false
    }
  }
}
node {
  name: "training/Adadelta/gradients/loss/dense_3_loss/truediv_grad/Reshape"
  op: "Reshape"
  input: "training/Adadelta/gradients/loss/dense_3_loss/truediv_grad/Sum"
  input: "training/Adadelta/gradients/loss/dense_3_loss/truediv_grad/Shape"
  attr {
    key: "T"
    value {
      type: DT_FLOAT
    }
  }
  attr {
    key: "Tshape"
    value {
      type: DT_INT32
    }
  }
  attr {
    key: "_class"
    value {
      list {
        s: "loc:@loss/dense_3_loss/truediv"
      }
    }
  }
}
node {
  name: "training/Adadelta/gradients/loss/dense_3_loss/truediv_grad/Neg"
  op: "Neg"
  input: "dense_3/Softmax"
  attr {
    key: "T"
    value {
      type: DT_FLOAT
    }
  }
  attr {
    key: "_class"
    value {
      list {
        s: "loc:@loss/dense_3_loss/truediv"
      }
    }
  }
}
node {
  name: "training/Adadelta/gradients/loss/dense_3_loss/truediv_grad/RealDiv_1"
  op: "RealDiv"
  input: "training/Adadelta/gradients/loss/dense_3_loss/truediv_grad/Neg"
  input: "loss/dense_3_loss/Sum"
  attr {
    key: "T"
    value {
      type: DT_FLOAT
    }
  }
  attr {
    key: "_class"
    value {
      list {
        s: "loc:@loss/dense_3_loss/truediv"
      }
    }
  }
}
node {
  name: "training/Adadelta/gradients/loss/dense_3_loss/truediv_grad/RealDiv_2"
  op: "RealDiv"
  input: "training/Adadelta/gradients/loss/dense_3_loss/truediv_grad/RealDiv_1"
  input: "loss/dense_3_loss/Sum"
  attr {
    key: "T"
    value {
      type: DT_FLOAT
    }
  }
  attr {
    key: "_class"
    value {
      list {
        s: "loc:@loss/dense_3_loss/truediv"
      }
    }
  }
}
node {
  name: "training/Adadelta/gradients/loss/dense_3_loss/truediv_grad/mul"
  op: "Mul"
  input: "training/Adadelta/gradients/loss/dense_3_loss/clip_by_value_grad/Reshape"
  input: "training/Adadelta/gradients/loss/dense_3_loss/truediv_grad/RealDiv_2"
  attr {
    key: "T"
    value {
      type: DT_FLOAT
    }
  }
  attr {
    key: "_class"
    value {
      list {
        s: "loc:@loss/dense_3_loss/truediv"
      }
    }
  }
}
node {
  name: "training/Adadelta/gradients/loss/dense_3_loss/truediv_grad/Sum_1"
  op: "Sum"
  input: "training/Adadelta/gradients/loss/dense_3_loss/truediv_grad/mul"
  input: "training/Adadelta/gradients/loss/dense_3_loss/truediv_grad/BroadcastGradientArgs:1"
  attr {
    key: "T"
    value {
      type: DT_FLOAT
    }
  }
  attr {
    key: "Tidx"
    value {
      type: DT_INT32
    }
  }
  attr {
    key: "_class"
    value {
      list {
        s: "loc:@loss/dense_3_loss/truediv"
      }
    }
  }
  attr {
    key: "keep_dims"
    value {
      b: false
    }
  }
}
node {
  name: "training/Adadelta/gradients/loss/dense_3_loss/truediv_grad/Reshape_1"
  op: "Reshape"
  input: "training/Adadelta/gradients/loss/dense_3_loss/truediv_grad/Sum_1"
  input: "training/Adadelta/gradients/loss/dense_3_loss/truediv_grad/Shape_1"
  attr {
    key: "T"
    value {
      type: DT_FLOAT
    }
  }
  attr {
    key: "Tshape"
    value {
      type: DT_INT32
    }
  }
  attr {
    key: "_class"
    value {
      list {
        s: "loc:@loss/dense_3_loss/truediv"
      }
    }
  }
}
node {
  name: "training/Adadelta/gradients/loss/dense_3_loss/Sum_grad/Shape"
  op: "Shape"
  input: "dense_3/Softmax"
  attr {
    key: "T"
    value {
      type: DT_FLOAT
    }
  }
  attr {
    key: "_class"
    value {
      list {
        s: "loc:@loss/dense_3_loss/Sum"
      }
    }
  }
  attr {
    key: "out_type"
    value {
      type: DT_INT32
    }
  }
}
node {
  name: "training/Adadelta/gradients/loss/dense_3_loss/Sum_grad/Size"
  op: "Const"
  attr {
    key: "_class"
    value {
      list {
        s: "loc:@loss/dense_3_loss/Sum"
      }
    }
  }
  attr {
    key: "dtype"
    value {
      type: DT_INT32
    }
  }
  attr {
    key: "value"
    value {
      tensor {
        dtype: DT_INT32
        tensor_shape {
        }
        int_val: 2
      }
    }
  }
}
node {
  name: "training/Adadelta/gradients/loss/dense_3_loss/Sum_grad/add"
  op: "Add"
  input: "loss/dense_3_loss/Sum/reduction_indices"
  input: "training/Adadelta/gradients/loss/dense_3_loss/Sum_grad/Size"
  attr {
    key: "T"
    value {
      type: DT_INT32
    }
  }
  attr {
    key: "_class"
    value {
      list {
        s: "loc:@loss/dense_3_loss/Sum"
      }
    }
  }
}
node {
  name: "training/Adadelta/gradients/loss/dense_3_loss/Sum_grad/mod"
  op: "FloorMod"
  input: "training/Adadelta/gradients/loss/dense_3_loss/Sum_grad/add"
  input: "training/Adadelta/gradients/loss/dense_3_loss/Sum_grad/Size"
  attr {
    key: "T"
    value {
      type: DT_INT32
    }
  }
  attr {
    key: "_class"
    value {
      list {
        s: "loc:@loss/dense_3_loss/Sum"
      }
    }
  }
}
node {
  name: "training/Adadelta/gradients/loss/dense_3_loss/Sum_grad/Shape_1"
  op: "Const"
  attr {
    key: "_class"
    value {
      list {
        s: "loc:@loss/dense_3_loss/Sum"
      }
    }
  }
  attr {
    key: "dtype"
    value {
      type: DT_INT32
    }
  }
  attr {
    key: "value"
    value {
      tensor {
        dtype: DT_INT32
        tensor_shape {
          dim {
          }
        }
      }
    }
  }
}
node {
  name: "training/Adadelta/gradients/loss/dense_3_loss/Sum_grad/range/start"
  op: "Const"
  attr {
    key: "_class"
    value {
      list {
        s: "loc:@loss/dense_3_loss/Sum"
      }
    }
  }
  attr {
    key: "dtype"
    value {
      type: DT_INT32
    }
  }
  attr {
    key: "value"
    value {
      tensor {
        dtype: DT_INT32
        tensor_shape {
        }
        int_val: 0
      }
    }
  }
}
node {
  name: "training/Adadelta/gradients/loss/dense_3_loss/Sum_grad/range/delta"
  op: "Const"
  attr {
    key: "_class"
    value {
      list {
        s: "loc:@loss/dense_3_loss/Sum"
      }
    }
  }
  attr {
    key: "dtype"
    value {
      type: DT_INT32
    }
  }
  attr {
    key: "value"
    value {
      tensor {
        dtype: DT_INT32
        tensor_shape {
        }
        int_val: 1
      }
    }
  }
}
node {
  name: "training/Adadelta/gradients/loss/dense_3_loss/Sum_grad/range"
  op: "Range"
  input: "training/Adadelta/gradients/loss/dense_3_loss/Sum_grad/range/start"
  input: "training/Adadelta/gradients/loss/dense_3_loss/Sum_grad/Size"
  input: "training/Adadelta/gradients/loss/dense_3_loss/Sum_grad/range/delta"
  attr {
    key: "Tidx"
    value {
      type: DT_INT32
    }
  }
  attr {
    key: "_class"
    value {
      list {
        s: "loc:@loss/dense_3_loss/Sum"
      }
    }
  }
}
node {
  name: "training/Adadelta/gradients/loss/dense_3_loss/Sum_grad/Fill/value"
  op: "Const"
  attr {
    key: "_class"
    value {
      list {
        s: "loc:@loss/dense_3_loss/Sum"
      }
    }
  }
  attr {
    key: "dtype"
    value {
      type: DT_INT32
    }
  }
  attr {
    key: "value"
    value {
      tensor {
        dtype: DT_INT32
        tensor_shape {
        }
        int_val: 1
      }
    }
  }
}
node {
  name: "training/Adadelta/gradients/loss/dense_3_loss/Sum_grad/Fill"
  op: "Fill"
  input: "training/Adadelta/gradients/loss/dense_3_loss/Sum_grad/Shape_1"
  input: "training/Adadelta/gradients/loss/dense_3_loss/Sum_grad/Fill/value"
  attr {
    key: "T"
    value {
      type: DT_INT32
    }
  }
  attr {
    key: "_class"
    value {
      list {
        s: "loc:@loss/dense_3_loss/Sum"
      }
    }
  }
  attr {
    key: "index_type"
    value {
      type: DT_INT32
    }
  }
}
node {
  name: "training/Adadelta/gradients/loss/dense_3_loss/Sum_grad/DynamicStitch"
  op: "DynamicStitch"
  input: "training/Adadelta/gradients/loss/dense_3_loss/Sum_grad/range"
  input: "training/Adadelta/gradients/loss/dense_3_loss/Sum_grad/mod"
  input: "training/Adadelta/gradients/loss/dense_3_loss/Sum_grad/Shape"
  input: "training/Adadelta/gradients/loss/dense_3_loss/Sum_grad/Fill"
  attr {
    key: "N"
    value {
      i: 2
    }
  }
  attr {
    key: "T"
    value {
      type: DT_INT32
    }
  }
  attr {
    key: "_class"
    value {
      list {
        s: "loc:@loss/dense_3_loss/Sum"
      }
    }
  }
}
node {
  name: "training/Adadelta/gradients/loss/dense_3_loss/Sum_grad/Maximum/y"
  op: "Const"
  attr {
    key: "_class"
    value {
      list {
        s: "loc:@loss/dense_3_loss/Sum"
      }
    }
  }
  attr {
    key: "dtype"
    value {
      type: DT_INT32
    }
  }
  attr {
    key: "value"
    value {
      tensor {
        dtype: DT_INT32
        tensor_shape {
        }
        int_val: 1
      }
    }
  }
}
node {
  name: "training/Adadelta/gradients/loss/dense_3_loss/Sum_grad/Maximum"
  op: "Maximum"
  input: "training/Adadelta/gradients/loss/dense_3_loss/Sum_grad/DynamicStitch"
  input: "training/Adadelta/gradients/loss/dense_3_loss/Sum_grad/Maximum/y"
  attr {
    key: "T"
    value {
      type: DT_INT32
    }
  }
  attr {
    key: "_class"
    value {
      list {
        s: "loc:@loss/dense_3_loss/Sum"
      }
    }
  }
}
node {
  name: "training/Adadelta/gradients/loss/dense_3_loss/Sum_grad/floordiv"
  op: "FloorDiv"
  input: "training/Adadelta/gradients/loss/dense_3_loss/Sum_grad/Shape"
  input: "training/Adadelta/gradients/loss/dense_3_loss/Sum_grad/Maximum"
  attr {
    key: "T"
    value {
      type: DT_INT32
    }
  }
  attr {
    key: "_class"
    value {
      list {
        s: "loc:@loss/dense_3_loss/Sum"
      }
    }
  }
}
node {
  name: "training/Adadelta/gradients/loss/dense_3_loss/Sum_grad/Reshape"
  op: "Reshape"
  input: "training/Adadelta/gradients/loss/dense_3_loss/truediv_grad/Reshape_1"
  input: "training/Adadelta/gradients/loss/dense_3_loss/Sum_grad/DynamicStitch"
  attr {
    key: "T"
    value {
      type: DT_FLOAT
    }
  }
  attr {
    key: "Tshape"
    value {
      type: DT_INT32
    }
  }
  attr {
    key: "_class"
    value {
      list {
        s: "loc:@loss/dense_3_loss/Sum"
      }
    }
  }
}
node {
  name: "training/Adadelta/gradients/loss/dense_3_loss/Sum_grad/Tile"
  op: "Tile"
  input: "training/Adadelta/gradients/loss/dense_3_loss/Sum_grad/Reshape"
  input: "training/Adadelta/gradients/loss/dense_3_loss/Sum_grad/floordiv"
  attr {
    key: "T"
    value {
      type: DT_FLOAT
    }
  }
  attr {
    key: "Tmultiples"
    value {
      type: DT_INT32
    }
  }
  attr {
    key: "_class"
    value {
      list {
        s: "loc:@loss/dense_3_loss/Sum"
      }
    }
  }
}
node {
  name: "training/Adadelta/gradients/AddN"
  op: "AddN"
  input: "training/Adadelta/gradients/loss/dense_3_loss/truediv_grad/Reshape"
  input: "training/Adadelta/gradients/loss/dense_3_loss/Sum_grad/Tile"
  attr {
    key: "N"
    value {
      i: 2
    }
  }
  attr {
    key: "T"
    value {
      type: DT_FLOAT
    }
  }
  attr {
    key: "_class"
    value {
      list {
        s: "loc:@loss/dense_3_loss/truediv"
      }
    }
  }
}
node {
  name: "training/Adadelta/gradients/dense_3/Softmax_grad/mul"
  op: "Mul"
  input: "training/Adadelta/gradients/AddN"
  input: "dense_3/Softmax"
  attr {
    key: "T"
    value {
      type: DT_FLOAT
    }
  }
  attr {
    key: "_class"
    value {
      list {
        s: "loc:@dense_3/Softmax"
      }
    }
  }
}
node {
  name: "training/Adadelta/gradients/dense_3/Softmax_grad/Sum/reduction_indices"
  op: "Const"
  attr {
    key: "_class"
    value {
      list {
        s: "loc:@dense_3/Softmax"
      }
    }
  }
  attr {
    key: "dtype"
    value {
      type: DT_INT32
    }
  }
  attr {
    key: "value"
    value {
      tensor {
        dtype: DT_INT32
        tensor_shape {
          dim {
            size: 1
          }
        }
        int_val: 1
      }
    }
  }
}
node {
  name: "training/Adadelta/gradients/dense_3/Softmax_grad/Sum"
  op: "Sum"
  input: "training/Adadelta/gradients/dense_3/Softmax_grad/mul"
  input: "training/Adadelta/gradients/dense_3/Softmax_grad/Sum/reduction_indices"
  attr {
    key: "T"
    value {
      type: DT_FLOAT
    }
  }
  attr {
    key: "Tidx"
    value {
      type: DT_INT32
    }
  }
  attr {
    key: "_class"
    value {
      list {
        s: "loc:@dense_3/Softmax"
      }
    }
  }
  attr {
    key: "keep_dims"
    value {
      b: false
    }
  }
}
node {
  name: "training/Adadelta/gradients/dense_3/Softmax_grad/Reshape/shape"
  op: "Const"
  attr {
    key: "_class"
    value {
      list {
        s: "loc:@dense_3/Softmax"
      }
    }
  }
  attr {
    key: "dtype"
    value {
      type: DT_INT32
    }
  }
  attr {
    key: "value"
    value {
      tensor {
        dtype: DT_INT32
        tensor_shape {
          dim {
            size: 2
          }
        }
        tensor_content: "\377\377\377\377\001\000\000\000"
      }
    }
  }
}
node {
  name: "training/Adadelta/gradients/dense_3/Softmax_grad/Reshape"
  op: "Reshape"
  input: "training/Adadelta/gradients/dense_3/Softmax_grad/Sum"
  input: "training/Adadelta/gradients/dense_3/Softmax_grad/Reshape/shape"
  attr {
    key: "T"
    value {
      type: DT_FLOAT
    }
  }
  attr {
    key: "Tshape"
    value {
      type: DT_INT32
    }
  }
  attr {
    key: "_class"
    value {
      list {
        s: "loc:@dense_3/Softmax"
      }
    }
  }
}
node {
  name: "training/Adadelta/gradients/dense_3/Softmax_grad/sub"
  op: "Sub"
  input: "training/Adadelta/gradients/AddN"
  input: "training/Adadelta/gradients/dense_3/Softmax_grad/Reshape"
  attr {
    key: "T"
    value {
      type: DT_FLOAT
    }
  }
  attr {
    key: "_class"
    value {
      list {
        s: "loc:@dense_3/Softmax"
      }
    }
  }
}
node {
  name: "training/Adadelta/gradients/dense_3/Softmax_grad/mul_1"
  op: "Mul"
  input: "training/Adadelta/gradients/dense_3/Softmax_grad/sub"
  input: "dense_3/Softmax"
  attr {
    key: "T"
    value {
      type: DT_FLOAT
    }
  }
  attr {
    key: "_class"
    value {
      list {
        s: "loc:@dense_3/Softmax"
      }
    }
  }
}
node {
  name: "training/Adadelta/gradients/dense_3/BiasAdd_grad/BiasAddGrad"
  op: "BiasAddGrad"
  input: "training/Adadelta/gradients/dense_3/Softmax_grad/mul_1"
  attr {
    key: "T"
    value {
      type: DT_FLOAT
    }
  }
  attr {
    key: "_class"
    value {
      list {
        s: "loc:@dense_3/BiasAdd"
      }
    }
  }
  attr {
    key: "data_format"
    value {
      s: "NHWC"
    }
  }
}
node {
  name: "training/Adadelta/gradients/dense_3/MatMul_grad/MatMul"
  op: "MatMul"
  input: "training/Adadelta/gradients/dense_3/Softmax_grad/mul_1"
  input: "dense_3/kernel/read"
  attr {
    key: "T"
    value {
      type: DT_FLOAT
    }
  }
  attr {
    key: "_class"
    value {
      list {
        s: "loc:@dense_3/MatMul"
      }
    }
  }
  attr {
    key: "transpose_a"
    value {
      b: false
    }
  }
  attr {
    key: "transpose_b"
    value {
      b: true
    }
  }
}
node {
  name: "training/Adadelta/gradients/dense_3/MatMul_grad/MatMul_1"
  op: "MatMul"
  input: "dropout_2/Identity"
  input: "training/Adadelta/gradients/dense_3/Softmax_grad/mul_1"
  attr {
    key: "T"
    value {
      type: DT_FLOAT
    }
  }
  attr {
    key: "_class"
    value {
      list {
        s: "loc:@dense_3/MatMul"
      }
    }
  }
  attr {
    key: "transpose_a"
    value {
      b: true
    }
  }
  attr {
    key: "transpose_b"
    value {
      b: false
    }
  }
}
node {
  name: "training/Adadelta/gradients/dense_2/Relu_grad/ReluGrad"
  op: "ReluGrad"
  input: "training/Adadelta/gradients/dense_3/MatMul_grad/MatMul"
  input: "dense_2/Relu"
  attr {
    key: "T"
    value {
      type: DT_FLOAT
    }
  }
  attr {
    key: "_class"
    value {
      list {
        s: "loc:@dense_2/Relu"
      }
    }
  }
}
node {
  name: "training/Adadelta/gradients/dense_2/BiasAdd_grad/BiasAddGrad"
  op: "BiasAddGrad"
  input: "training/Adadelta/gradients/dense_2/Relu_grad/ReluGrad"
  attr {
    key: "T"
    value {
      type: DT_FLOAT
    }
  }
  attr {
    key: "_class"
    value {
      list {
        s: "loc:@dense_2/BiasAdd"
      }
    }
  }
  attr {
    key: "data_format"
    value {
      s: "NHWC"
    }
  }
}
node {
  name: "training/Adadelta/gradients/dense_2/MatMul_grad/MatMul"
  op: "MatMul"
  input: "training/Adadelta/gradients/dense_2/Relu_grad/ReluGrad"
  input: "dense_2/kernel/read"
  attr {
    key: "T"
    value {
      type: DT_FLOAT
    }
  }
  attr {
    key: "_class"
    value {
      list {
        s: "loc:@dense_2/MatMul"
      }
    }
  }
  attr {
    key: "transpose_a"
    value {
      b: false
    }
  }
  attr {
    key: "transpose_b"
    value {
      b: true
    }
  }
}
node {
  name: "training/Adadelta/gradients/dense_2/MatMul_grad/MatMul_1"
  op: "MatMul"
  input: "dense_1/Relu"
  input: "training/Adadelta/gradients/dense_2/Relu_grad/ReluGrad"
  attr {
    key: "T"
    value {
      type: DT_FLOAT
    }
  }
  attr {
    key: "_class"
    value {
      list {
        s: "loc:@dense_2/MatMul"
      }
    }
  }
  attr {
    key: "transpose_a"
    value {
      b: true
    }
  }
  attr {
    key: "transpose_b"
    value {
      b: false
    }
  }
}
node {
  name: "training/Adadelta/gradients/dense_1/Relu_grad/ReluGrad"
  op: "ReluGrad"
  input: "training/Adadelta/gradients/dense_2/MatMul_grad/MatMul"
  input: "dense_1/Relu"
  attr {
    key: "T"
    value {
      type: DT_FLOAT
    }
  }
  attr {
    key: "_class"
    value {
      list {
        s: "loc:@dense_1/Relu"
      }
    }
  }
}
node {
  name: "training/Adadelta/gradients/dense_1/BiasAdd_grad/BiasAddGrad"
  op: "BiasAddGrad"
  input: "training/Adadelta/gradients/dense_1/Relu_grad/ReluGrad"
  attr {
    key: "T"
    value {
      type: DT_FLOAT
    }
  }
  attr {
    key: "_class"
    value {
      list {
        s: "loc:@dense_1/BiasAdd"
      }
    }
  }
  attr {
    key: "data_format"
    value {
      s: "NHWC"
    }
  }
}
node {
  name: "training/Adadelta/gradients/dense_1/MatMul_grad/MatMul"
  op: "MatMul"
  input: "training/Adadelta/gradients/dense_1/Relu_grad/ReluGrad"
  input: "dense_1/kernel/read"
  attr {
    key: "T"
    value {
      type: DT_FLOAT
    }
  }
  attr {
    key: "_class"
    value {
      list {
        s: "loc:@dense_1/MatMul"
      }
    }
  }
  attr {
    key: "transpose_a"
    value {
      b: false
    }
  }
  attr {
    key: "transpose_b"
    value {
      b: true
    }
  }
}
node {
  name: "training/Adadelta/gradients/dense_1/MatMul_grad/MatMul_1"
  op: "MatMul"
  input: "flatten_1/Reshape"
  input: "training/Adadelta/gradients/dense_1/Relu_grad/ReluGrad"
  attr {
    key: "T"
    value {
      type: DT_FLOAT
    }
  }
  attr {
    key: "_class"
    value {
      list {
        s: "loc:@dense_1/MatMul"
      }
    }
  }
  attr {
    key: "transpose_a"
    value {
      b: true
    }
  }
  attr {
    key: "transpose_b"
    value {
      b: false
    }
  }
}
node {
  name: "training/Adadelta/gradients/flatten_1/Reshape_grad/Shape"
  op: "Shape"
  input: "dropout_1/Identity"
  attr {
    key: "T"
    value {
      type: DT_FLOAT
    }
  }
  attr {
    key: "_class"
    value {
      list {
        s: "loc:@flatten_1/Reshape"
      }
    }
  }
  attr {
    key: "out_type"
    value {
      type: DT_INT32
    }
  }
}
node {
  name: "training/Adadelta/gradients/flatten_1/Reshape_grad/Reshape"
  op: "Reshape"
  input: "training/Adadelta/gradients/dense_1/MatMul_grad/MatMul"
  input: "training/Adadelta/gradients/flatten_1/Reshape_grad/Shape"
  attr {
    key: "T"
    value {
      type: DT_FLOAT
    }
  }
  attr {
    key: "Tshape"
    value {
      type: DT_INT32
    }
  }
  attr {
    key: "_class"
    value {
      list {
        s: "loc:@flatten_1/Reshape"
      }
    }
  }
}
node {
  name: "training/Adadelta/gradients/average_pooling2d_1/AvgPool_grad/Shape"
  op: "Shape"
  input: "conv2d_1/Relu"
  attr {
    key: "T"
    value {
      type: DT_FLOAT
    }
  }
  attr {
    key: "_class"
    value {
      list {
        s: "loc:@average_pooling2d_1/AvgPool"
      }
    }
  }
  attr {
    key: "out_type"
    value {
      type: DT_INT32
    }
  }
}
node {
  name: "training/Adadelta/gradients/average_pooling2d_1/AvgPool_grad/AvgPoolGrad"
  op: "AvgPoolGrad"
  input: "training/Adadelta/gradients/average_pooling2d_1/AvgPool_grad/Shape"
  input: "training/Adadelta/gradients/flatten_1/Reshape_grad/Reshape"
  attr {
    key: "T"
    value {
      type: DT_FLOAT
    }
  }
  attr {
    key: "_class"
    value {
      list {
        s: "loc:@average_pooling2d_1/AvgPool"
      }
    }
  }
  attr {
    key: "data_format"
    value {
      s: "NHWC"
    }
  }
  attr {
    key: "ksize"
    value {
      list {
        i: 1
        i: 2
        i: 2
        i: 1
      }
    }
  }
  attr {
    key: "padding"
    value {
      s: "VALID"
    }
  }
  attr {
    key: "strides"
    value {
      list {
        i: 1
        i: 2
        i: 2
        i: 1
      }
    }
  }
}
node {
  name: "training/Adadelta/gradients/conv2d_1/Relu_grad/ReluGrad"
  op: "ReluGrad"
  input: "training/Adadelta/gradients/average_pooling2d_1/AvgPool_grad/AvgPoolGrad"
  input: "conv2d_1/Relu"
  attr {
    key: "T"
    value {
      type: DT_FLOAT
    }
  }
  attr {
    key: "_class"
    value {
      list {
        s: "loc:@conv2d_1/Relu"
      }
    }
  }
}
node {
  name: "training/Adadelta/gradients/conv2d_1/BiasAdd_grad/BiasAddGrad"
  op: "BiasAddGrad"
  input: "training/Adadelta/gradients/conv2d_1/Relu_grad/ReluGrad"
  attr {
    key: "T"
    value {
      type: DT_FLOAT
    }
  }
  attr {
    key: "_class"
    value {
      list {
        s: "loc:@conv2d_1/BiasAdd"
      }
    }
  }
  attr {
    key: "data_format"
    value {
      s: "NHWC"
    }
  }
}
node {
  name: "training/Adadelta/gradients/conv2d_1/convolution_grad/ShapeN"
  op: "ShapeN"
  input: "conv2d_1/Cast"
  input: "conv2d_1/kernel/read"
  attr {
    key: "N"
    value {
      i: 2
    }
  }
  attr {
    key: "T"
    value {
      type: DT_FLOAT
    }
  }
  attr {
    key: "_class"
    value {
      list {
        s: "loc:@conv2d_1/convolution"
      }
    }
  }
  attr {
    key: "out_type"
    value {
      type: DT_INT32
    }
  }
}
node {
  name: "training/Adadelta/gradients/conv2d_1/convolution_grad/Const"
  op: "Const"
  attr {
    key: "_class"
    value {
      list {
        s: "loc:@conv2d_1/convolution"
      }
    }
  }
  attr {
    key: "dtype"
    value {
      type: DT_INT32
    }
  }
  attr {
    key: "value"
    value {
      tensor {
        dtype: DT_INT32
        tensor_shape {
          dim {
            size: 4
          }
        }
        tensor_content: "\002\000\000\000\002\000\000\000\001\000\000\000d\000\000\000"
      }
    }
  }
}
node {
  name: "training/Adadelta/gradients/conv2d_1/convolution_grad/Conv2DBackpropInput"
  op: "Conv2DBackpropInput"
  input: "training/Adadelta/gradients/conv2d_1/convolution_grad/ShapeN"
  input: "conv2d_1/kernel/read"
  input: "training/Adadelta/gradients/conv2d_1/Relu_grad/ReluGrad"
  attr {
    key: "T"
    value {
      type: DT_FLOAT
    }
  }
  attr {
    key: "_class"
    value {
      list {
        s: "loc:@conv2d_1/convolution"
      }
    }
  }
  attr {
    key: "data_format"
    value {
      s: "NHWC"
    }
  }
  attr {
    key: "dilations"
    value {
      list {
        i: 1
        i: 1
        i: 1
        i: 1
      }
    }
  }
  attr {
    key: "padding"
    value {
      s: "VALID"
    }
  }
  attr {
    key: "strides"
    value {
      list {
        i: 1
        i: 1
        i: 1
        i: 1
      }
    }
  }
  attr {
    key: "use_cudnn_on_gpu"
    value {
      b: true
    }
  }
}
node {
  name: "training/Adadelta/gradients/conv2d_1/convolution_grad/Conv2DBackpropFilter"
  op: "Conv2DBackpropFilter"
  input: "conv2d_1/Cast"
  input: "training/Adadelta/gradients/conv2d_1/convolution_grad/Const"
  input: "training/Adadelta/gradients/conv2d_1/Relu_grad/ReluGrad"
  attr {
    key: "T"
    value {
      type: DT_FLOAT
    }
  }
  attr {
    key: "_class"
    value {
      list {
        s: "loc:@conv2d_1/convolution"
      }
    }
  }
  attr {
    key: "data_format"
    value {
      s: "NHWC"
    }
  }
  attr {
    key: "dilations"
    value {
      list {
        i: 1
        i: 1
        i: 1
        i: 1
      }
    }
  }
  attr {
    key: "padding"
    value {
      s: "VALID"
    }
  }
  attr {
    key: "strides"
    value {
      list {
        i: 1
        i: 1
        i: 1
        i: 1
      }
    }
  }
  attr {
    key: "use_cudnn_on_gpu"
    value {
      b: true
    }
  }
}
node {
  name: "training/Adadelta/zeros"
  op: "Const"
  attr {
    key: "dtype"
    value {
      type: DT_FLOAT
    }
  }
  attr {
    key: "value"
    value {
      tensor {
        dtype: DT_FLOAT
        tensor_shape {
          dim {
            size: 2
          }
          dim {
            size: 2
          }
          dim {
            size: 1
          }
          dim {
            size: 100
          }
        }
        float_val: 0.0
      }
    }
  }
}
node {
  name: "training/Adadelta/Variable"
  op: "VariableV2"
  attr {
    key: "container"
    value {
      s: ""
    }
  }
  attr {
    key: "dtype"
    value {
      type: DT_FLOAT
    }
  }
  attr {
    key: "shape"
    value {
      shape {
        dim {
          size: 2
        }
        dim {
          size: 2
        }
        dim {
          size: 1
        }
        dim {
          size: 100
        }
      }
    }
  }
  attr {
    key: "shared_name"
    value {
      s: ""
    }
  }
}
node {
  name: "training/Adadelta/Variable/Assign"
  op: "Assign"
  input: "training/Adadelta/Variable"
  input: "training/Adadelta/zeros"
  attr {
    key: "T"
    value {
      type: DT_FLOAT
    }
  }
  attr {
    key: "_class"
    value {
      list {
        s: "loc:@training/Adadelta/Variable"
      }
    }
  }
  attr {
    key: "use_locking"
    value {
      b: true
    }
  }
  attr {
    key: "validate_shape"
    value {
      b: true
    }
  }
}
node {
  name: "training/Adadelta/Variable/read"
  op: "Identity"
  input: "training/Adadelta/Variable"
  attr {
    key: "T"
    value {
      type: DT_FLOAT
    }
  }
  attr {
    key: "_class"
    value {
      list {
        s: "loc:@training/Adadelta/Variable"
      }
    }
  }
}
node {
  name: "training/Adadelta/zeros_1"
  op: "Const"
  attr {
    key: "dtype"
    value {
      type: DT_FLOAT
    }
  }
  attr {
    key: "value"
    value {
      tensor {
        dtype: DT_FLOAT
        tensor_shape {
          dim {
            size: 100
          }
        }
        float_val: 0.0
      }
    }
  }
}
node {
  name: "training/Adadelta/Variable_1"
  op: "VariableV2"
  attr {
    key: "container"
    value {
      s: ""
    }
  }
  attr {
    key: "dtype"
    value {
      type: DT_FLOAT
    }
  }
  attr {
    key: "shape"
    value {
      shape {
        dim {
          size: 100
        }
      }
    }
  }
  attr {
    key: "shared_name"
    value {
      s: ""
    }
  }
}
node {
  name: "training/Adadelta/Variable_1/Assign"
  op: "Assign"
  input: "training/Adadelta/Variable_1"
  input: "training/Adadelta/zeros_1"
  attr {
    key: "T"
    value {
      type: DT_FLOAT
    }
  }
  attr {
    key: "_class"
    value {
      list {
        s: "loc:@training/Adadelta/Variable_1"
      }
    }
  }
  attr {
    key: "use_locking"
    value {
      b: true
    }
  }
  attr {
    key: "validate_shape"
    value {
      b: true
    }
  }
}
node {
  name: "training/Adadelta/Variable_1/read"
  op: "Identity"
  input: "training/Adadelta/Variable_1"
  attr {
    key: "T"
    value {
      type: DT_FLOAT
    }
  }
  attr {
    key: "_class"
    value {
      list {
        s: "loc:@training/Adadelta/Variable_1"
      }
    }
  }
}
node {
  name: "training/Adadelta/zeros_2/shape_as_tensor"
  op: "Const"
  attr {
    key: "dtype"
    value {
      type: DT_INT32
    }
  }
  attr {
    key: "value"
    value {
      tensor {
        dtype: DT_INT32
        tensor_shape {
          dim {
            size: 2
          }
        }
        tensor_content: "\020\016\000\000\200\000\000\000"
      }
    }
  }
}
node {
  name: "training/Adadelta/zeros_2/Const"
  op: "Const"
  attr {
    key: "dtype"
    value {
      type: DT_FLOAT
    }
  }
  attr {
    key: "value"
    value {
      tensor {
        dtype: DT_FLOAT
        tensor_shape {
        }
        float_val: 0.0
      }
    }
  }
}
node {
  name: "training/Adadelta/zeros_2"
  op: "Fill"
  input: "training/Adadelta/zeros_2/shape_as_tensor"
  input: "training/Adadelta/zeros_2/Const"
  attr {
    key: "T"
    value {
      type: DT_FLOAT
    }
  }
  attr {
    key: "index_type"
    value {
      type: DT_INT32
    }
  }
}
node {
  name: "training/Adadelta/Variable_2"
  op: "VariableV2"
  attr {
    key: "container"
    value {
      s: ""
    }
  }
  attr {
    key: "dtype"
    value {
      type: DT_FLOAT
    }
  }
  attr {
    key: "shape"
    value {
      shape {
        dim {
          size: 3600
        }
        dim {
          size: 128
        }
      }
    }
  }
  attr {
    key: "shared_name"
    value {
      s: ""
    }
  }
}
node {
  name: "training/Adadelta/Variable_2/Assign"
  op: "Assign"
  input: "training/Adadelta/Variable_2"
  input: "training/Adadelta/zeros_2"
  attr {
    key: "T"
    value {
      type: DT_FLOAT
    }
  }
  attr {
    key: "_class"
    value {
      list {
        s: "loc:@training/Adadelta/Variable_2"
      }
    }
  }
  attr {
    key: "use_locking"
    value {
      b: true
    }
  }
  attr {
    key: "validate_shape"
    value {
      b: true
    }
  }
}
node {
  name: "training/Adadelta/Variable_2/read"
  op: "Identity"
  input: "training/Adadelta/Variable_2"
  attr {
    key: "T"
    value {
      type: DT_FLOAT
    }
  }
  attr {
    key: "_class"
    value {
      list {
        s: "loc:@training/Adadelta/Variable_2"
      }
    }
  }
}
node {
  name: "training/Adadelta/zeros_3"
  op: "Const"
  attr {
    key: "dtype"
    value {
      type: DT_FLOAT
    }
  }
  attr {
    key: "value"
    value {
      tensor {
        dtype: DT_FLOAT
        tensor_shape {
          dim {
            size: 128
          }
        }
        float_val: 0.0
      }
    }
  }
}
node {
  name: "training/Adadelta/Variable_3"
  op: "VariableV2"
  attr {
    key: "container"
    value {
      s: ""
    }
  }
  attr {
    key: "dtype"
    value {
      type: DT_FLOAT
    }
  }
  attr {
    key: "shape"
    value {
      shape {
        dim {
          size: 128
        }
      }
    }
  }
  attr {
    key: "shared_name"
    value {
      s: ""
    }
  }
}
node {
  name: "training/Adadelta/Variable_3/Assign"
  op: "Assign"
  input: "training/Adadelta/Variable_3"
  input: "training/Adadelta/zeros_3"
  attr {
    key: "T"
    value {
      type: DT_FLOAT
    }
  }
  attr {
    key: "_class"
    value {
      list {
        s: "loc:@training/Adadelta/Variable_3"
      }
    }
  }
  attr {
    key: "use_locking"
    value {
      b: true
    }
  }
  attr {
    key: "validate_shape"
    value {
      b: true
    }
  }
}
node {
  name: "training/Adadelta/Variable_3/read"
  op: "Identity"
  input: "training/Adadelta/Variable_3"
  attr {
    key: "T"
    value {
      type: DT_FLOAT
    }
  }
  attr {
    key: "_class"
    value {
      list {
        s: "loc:@training/Adadelta/Variable_3"
      }
    }
  }
}
node {
  name: "training/Adadelta/zeros_4/shape_as_tensor"
  op: "Const"
  attr {
    key: "dtype"
    value {
      type: DT_INT32
    }
  }
  attr {
    key: "value"
    value {
      tensor {
        dtype: DT_INT32
        tensor_shape {
          dim {
            size: 2
          }
        }
        tensor_content: "\200\000\000\000@\000\000\000"
      }
    }
  }
}
node {
  name: "training/Adadelta/zeros_4/Const"
  op: "Const"
  attr {
    key: "dtype"
    value {
      type: DT_FLOAT
    }
  }
  attr {
    key: "value"
    value {
      tensor {
        dtype: DT_FLOAT
        tensor_shape {
        }
        float_val: 0.0
      }
    }
  }
}
node {
  name: "training/Adadelta/zeros_4"
  op: "Fill"
  input: "training/Adadelta/zeros_4/shape_as_tensor"
  input: "training/Adadelta/zeros_4/Const"
  attr {
    key: "T"
    value {
      type: DT_FLOAT
    }
  }
  attr {
    key: "index_type"
    value {
      type: DT_INT32
    }
  }
}
node {
  name: "training/Adadelta/Variable_4"
  op: "VariableV2"
  attr {
    key: "container"
    value {
      s: ""
    }
  }
  attr {
    key: "dtype"
    value {
      type: DT_FLOAT
    }
  }
  attr {
    key: "shape"
    value {
      shape {
        dim {
          size: 128
        }
        dim {
          size: 64
        }
      }
    }
  }
  attr {
    key: "shared_name"
    value {
      s: ""
    }
  }
}
node {
  name: "training/Adadelta/Variable_4/Assign"
  op: "Assign"
  input: "training/Adadelta/Variable_4"
  input: "training/Adadelta/zeros_4"
  attr {
    key: "T"
    value {
      type: DT_FLOAT
    }
  }
  attr {
    key: "_class"
    value {
      list {
        s: "loc:@training/Adadelta/Variable_4"
      }
    }
  }
  attr {
    key: "use_locking"
    value {
      b: true
    }
  }
  attr {
    key: "validate_shape"
    value {
      b: true
    }
  }
}
node {
  name: "training/Adadelta/Variable_4/read"
  op: "Identity"
  input: "training/Adadelta/Variable_4"
  attr {
    key: "T"
    value {
      type: DT_FLOAT
    }
  }
  attr {
    key: "_class"
    value {
      list {
        s: "loc:@training/Adadelta/Variable_4"
      }
    }
  }
}
node {
  name: "training/Adadelta/zeros_5"
  op: "Const"
  attr {
    key: "dtype"
    value {
      type: DT_FLOAT
    }
  }
  attr {
    key: "value"
    value {
      tensor {
        dtype: DT_FLOAT
        tensor_shape {
          dim {
            size: 64
          }
        }
        float_val: 0.0
      }
    }
  }
}
node {
  name: "training/Adadelta/Variable_5"
  op: "VariableV2"
  attr {
    key: "container"
    value {
      s: ""
    }
  }
  attr {
    key: "dtype"
    value {
      type: DT_FLOAT
    }
  }
  attr {
    key: "shape"
    value {
      shape {
        dim {
          size: 64
        }
      }
    }
  }
  attr {
    key: "shared_name"
    value {
      s: ""
    }
  }
}
node {
  name: "training/Adadelta/Variable_5/Assign"
  op: "Assign"
  input: "training/Adadelta/Variable_5"
  input: "training/Adadelta/zeros_5"
  attr {
    key: "T"
    value {
      type: DT_FLOAT
    }
  }
  attr {
    key: "_class"
    value {
      list {
        s: "loc:@training/Adadelta/Variable_5"
      }
    }
  }
  attr {
    key: "use_locking"
    value {
      b: true
    }
  }
  attr {
    key: "validate_shape"
    value {
      b: true
    }
  }
}
node {
  name: "training/Adadelta/Variable_5/read"
  op: "Identity"
  input: "training/Adadelta/Variable_5"
  attr {
    key: "T"
    value {
      type: DT_FLOAT
    }
  }
  attr {
    key: "_class"
    value {
      list {
        s: "loc:@training/Adadelta/Variable_5"
      }
    }
  }
}
node {
  name: "training/Adadelta/zeros_6"
  op: "Const"
  attr {
    key: "dtype"
    value {
      type: DT_FLOAT
    }
  }
  attr {
    key: "value"
    value {
      tensor {
        dtype: DT_FLOAT
        tensor_shape {
          dim {
            size: 64
          }
          dim {
            size: 4
          }
        }
        float_val: 0.0
      }
    }
  }
}
node {
  name: "training/Adadelta/Variable_6"
  op: "VariableV2"
  attr {
    key: "container"
    value {
      s: ""
    }
  }
  attr {
    key: "dtype"
    value {
      type: DT_FLOAT
    }
  }
  attr {
    key: "shape"
    value {
      shape {
        dim {
          size: 64
        }
        dim {
          size: 4
        }
      }
    }
  }
  attr {
    key: "shared_name"
    value {
      s: ""
    }
  }
}
node {
  name: "training/Adadelta/Variable_6/Assign"
  op: "Assign"
  input: "training/Adadelta/Variable_6"
  input: "training/Adadelta/zeros_6"
  attr {
    key: "T"
    value {
      type: DT_FLOAT
    }
  }
  attr {
    key: "_class"
    value {
      list {
        s: "loc:@training/Adadelta/Variable_6"
      }
    }
  }
  attr {
    key: "use_locking"
    value {
      b: true
    }
  }
  attr {
    key: "validate_shape"
    value {
      b: true
    }
  }
}
node {
  name: "training/Adadelta/Variable_6/read"
  op: "Identity"
  input: "training/Adadelta/Variable_6"
  attr {
    key: "T"
    value {
      type: DT_FLOAT
    }
  }
  attr {
    key: "_class"
    value {
      list {
        s: "loc:@training/Adadelta/Variable_6"
      }
    }
  }
}
node {
  name: "training/Adadelta/zeros_7"
  op: "Const"
  attr {
    key: "dtype"
    value {
      type: DT_FLOAT
    }
  }
  attr {
    key: "value"
    value {
      tensor {
        dtype: DT_FLOAT
        tensor_shape {
          dim {
            size: 4
          }
        }
        float_val: 0.0
      }
    }
  }
}
node {
  name: "training/Adadelta/Variable_7"
  op: "VariableV2"
  attr {
    key: "container"
    value {
      s: ""
    }
  }
  attr {
    key: "dtype"
    value {
      type: DT_FLOAT
    }
  }
  attr {
    key: "shape"
    value {
      shape {
        dim {
          size: 4
        }
      }
    }
  }
  attr {
    key: "shared_name"
    value {
      s: ""
    }
  }
}
node {
  name: "training/Adadelta/Variable_7/Assign"
  op: "Assign"
  input: "training/Adadelta/Variable_7"
  input: "training/Adadelta/zeros_7"
  attr {
    key: "T"
    value {
      type: DT_FLOAT
    }
  }
  attr {
    key: "_class"
    value {
      list {
        s: "loc:@training/Adadelta/Variable_7"
      }
    }
  }
  attr {
    key: "use_locking"
    value {
      b: true
    }
  }
  attr {
    key: "validate_shape"
    value {
      b: true
    }
  }
}
node {
  name: "training/Adadelta/Variable_7/read"
  op: "Identity"
  input: "training/Adadelta/Variable_7"
  attr {
    key: "T"
    value {
      type: DT_FLOAT
    }
  }
  attr {
    key: "_class"
    value {
      list {
        s: "loc:@training/Adadelta/Variable_7"
      }
    }
  }
}
node {
  name: "training/Adadelta/zeros_8"
  op: "Const"
  attr {
    key: "dtype"
    value {
      type: DT_FLOAT
    }
  }
  attr {
    key: "value"
    value {
      tensor {
        dtype: DT_FLOAT
        tensor_shape {
          dim {
            size: 2
          }
          dim {
            size: 2
          }
          dim {
            size: 1
          }
          dim {
            size: 100
          }
        }
        float_val: 0.0
      }
    }
  }
}
node {
  name: "training/Adadelta/Variable_8"
  op: "VariableV2"
  attr {
    key: "container"
    value {
      s: ""
    }
  }
  attr {
    key: "dtype"
    value {
      type: DT_FLOAT
    }
  }
  attr {
    key: "shape"
    value {
      shape {
        dim {
          size: 2
        }
        dim {
          size: 2
        }
        dim {
          size: 1
        }
        dim {
          size: 100
        }
      }
    }
  }
  attr {
    key: "shared_name"
    value {
      s: ""
    }
  }
}
node {
  name: "training/Adadelta/Variable_8/Assign"
  op: "Assign"
  input: "training/Adadelta/Variable_8"
  input: "training/Adadelta/zeros_8"
  attr {
    key: "T"
    value {
      type: DT_FLOAT
    }
  }
  attr {
    key: "_class"
    value {
      list {
        s: "loc:@training/Adadelta/Variable_8"
      }
    }
  }
  attr {
    key: "use_locking"
    value {
      b: true
    }
  }
  attr {
    key: "validate_shape"
    value {
      b: true
    }
  }
}
node {
  name: "training/Adadelta/Variable_8/read"
  op: "Identity"
  input: "training/Adadelta/Variable_8"
  attr {
    key: "T"
    value {
      type: DT_FLOAT
    }
  }
  attr {
    key: "_class"
    value {
      list {
        s: "loc:@training/Adadelta/Variable_8"
      }
    }
  }
}
node {
  name: "training/Adadelta/zeros_9"
  op: "Const"
  attr {
    key: "dtype"
    value {
      type: DT_FLOAT
    }
  }
  attr {
    key: "value"
    value {
      tensor {
        dtype: DT_FLOAT
        tensor_shape {
          dim {
            size: 100
          }
        }
        float_val: 0.0
      }
    }
  }
}
node {
  name: "training/Adadelta/Variable_9"
  op: "VariableV2"
  attr {
    key: "container"
    value {
      s: ""
    }
  }
  attr {
    key: "dtype"
    value {
      type: DT_FLOAT
    }
  }
  attr {
    key: "shape"
    value {
      shape {
        dim {
          size: 100
        }
      }
    }
  }
  attr {
    key: "shared_name"
    value {
      s: ""
    }
  }
}
node {
  name: "training/Adadelta/Variable_9/Assign"
  op: "Assign"
  input: "training/Adadelta/Variable_9"
  input: "training/Adadelta/zeros_9"
  attr {
    key: "T"
    value {
      type: DT_FLOAT
    }
  }
  attr {
    key: "_class"
    value {
      list {
        s: "loc:@training/Adadelta/Variable_9"
      }
    }
  }
  attr {
    key: "use_locking"
    value {
      b: true
    }
  }
  attr {
    key: "validate_shape"
    value {
      b: true
    }
  }
}
node {
  name: "training/Adadelta/Variable_9/read"
  op: "Identity"
  input: "training/Adadelta/Variable_9"
  attr {
    key: "T"
    value {
      type: DT_FLOAT
    }
  }
  attr {
    key: "_class"
    value {
      list {
        s: "loc:@training/Adadelta/Variable_9"
      }
    }
  }
}
node {
  name: "training/Adadelta/zeros_10/shape_as_tensor"
  op: "Const"
  attr {
    key: "dtype"
    value {
      type: DT_INT32
    }
  }
  attr {
    key: "value"
    value {
      tensor {
        dtype: DT_INT32
        tensor_shape {
          dim {
            size: 2
          }
        }
        tensor_content: "\020\016\000\000\200\000\000\000"
      }
    }
  }
}
node {
  name: "training/Adadelta/zeros_10/Const"
  op: "Const"
  attr {
    key: "dtype"
    value {
      type: DT_FLOAT
    }
  }
  attr {
    key: "value"
    value {
      tensor {
        dtype: DT_FLOAT
        tensor_shape {
        }
        float_val: 0.0
      }
    }
  }
}
node {
  name: "training/Adadelta/zeros_10"
  op: "Fill"
  input: "training/Adadelta/zeros_10/shape_as_tensor"
  input: "training/Adadelta/zeros_10/Const"
  attr {
    key: "T"
    value {
      type: DT_FLOAT
    }
  }
  attr {
    key: "index_type"
    value {
      type: DT_INT32
    }
  }
}
node {
  name: "training/Adadelta/Variable_10"
  op: "VariableV2"
  attr {
    key: "container"
    value {
      s: ""
    }
  }
  attr {
    key: "dtype"
    value {
      type: DT_FLOAT
    }
  }
  attr {
    key: "shape"
    value {
      shape {
        dim {
          size: 3600
        }
        dim {
          size: 128
        }
      }
    }
  }
  attr {
    key: "shared_name"
    value {
      s: ""
    }
  }
}
node {
  name: "training/Adadelta/Variable_10/Assign"
  op: "Assign"
  input: "training/Adadelta/Variable_10"
  input: "training/Adadelta/zeros_10"
  attr {
    key: "T"
    value {
      type: DT_FLOAT
    }
  }
  attr {
    key: "_class"
    value {
      list {
        s: "loc:@training/Adadelta/Variable_10"
      }
    }
  }
  attr {
    key: "use_locking"
    value {
      b: true
    }
  }
  attr {
    key: "validate_shape"
    value {
      b: true
    }
  }
}
node {
  name: "training/Adadelta/Variable_10/read"
  op: "Identity"
  input: "training/Adadelta/Variable_10"
  attr {
    key: "T"
    value {
      type: DT_FLOAT
    }
  }
  attr {
    key: "_class"
    value {
      list {
        s: "loc:@training/Adadelta/Variable_10"
      }
    }
  }
}
node {
  name: "training/Adadelta/zeros_11"
  op: "Const"
  attr {
    key: "dtype"
    value {
      type: DT_FLOAT
    }
  }
  attr {
    key: "value"
    value {
      tensor {
        dtype: DT_FLOAT
        tensor_shape {
          dim {
            size: 128
          }
        }
        float_val: 0.0
      }
    }
  }
}
node {
  name: "training/Adadelta/Variable_11"
  op: "VariableV2"
  attr {
    key: "container"
    value {
      s: ""
    }
  }
  attr {
    key: "dtype"
    value {
      type: DT_FLOAT
    }
  }
  attr {
    key: "shape"
    value {
      shape {
        dim {
          size: 128
        }
      }
    }
  }
  attr {
    key: "shared_name"
    value {
      s: ""
    }
  }
}
node {
  name: "training/Adadelta/Variable_11/Assign"
  op: "Assign"
  input: "training/Adadelta/Variable_11"
  input: "training/Adadelta/zeros_11"
  attr {
    key: "T"
    value {
      type: DT_FLOAT
    }
  }
  attr {
    key: "_class"
    value {
      list {
        s: "loc:@training/Adadelta/Variable_11"
      }
    }
  }
  attr {
    key: "use_locking"
    value {
      b: true
    }
  }
  attr {
    key: "validate_shape"
    value {
      b: true
    }
  }
}
node {
  name: "training/Adadelta/Variable_11/read"
  op: "Identity"
  input: "training/Adadelta/Variable_11"
  attr {
    key: "T"
    value {
      type: DT_FLOAT
    }
  }
  attr {
    key: "_class"
    value {
      list {
        s: "loc:@training/Adadelta/Variable_11"
      }
    }
  }
}
node {
  name: "training/Adadelta/zeros_12/shape_as_tensor"
  op: "Const"
  attr {
    key: "dtype"
    value {
      type: DT_INT32
    }
  }
  attr {
    key: "value"
    value {
      tensor {
        dtype: DT_INT32
        tensor_shape {
          dim {
            size: 2
          }
        }
        tensor_content: "\200\000\000\000@\000\000\000"
      }
    }
  }
}
node {
  name: "training/Adadelta/zeros_12/Const"
  op: "Const"
  attr {
    key: "dtype"
    value {
      type: DT_FLOAT
    }
  }
  attr {
    key: "value"
    value {
      tensor {
        dtype: DT_FLOAT
        tensor_shape {
        }
        float_val: 0.0
      }
    }
  }
}
node {
  name: "training/Adadelta/zeros_12"
  op: "Fill"
  input: "training/Adadelta/zeros_12/shape_as_tensor"
  input: "training/Adadelta/zeros_12/Const"
  attr {
    key: "T"
    value {
      type: DT_FLOAT
    }
  }
  attr {
    key: "index_type"
    value {
      type: DT_INT32
    }
  }
}
node {
  name: "training/Adadelta/Variable_12"
  op: "VariableV2"
  attr {
    key: "container"
    value {
      s: ""
    }
  }
  attr {
    key: "dtype"
    value {
      type: DT_FLOAT
    }
  }
  attr {
    key: "shape"
    value {
      shape {
        dim {
          size: 128
        }
        dim {
          size: 64
        }
      }
    }
  }
  attr {
    key: "shared_name"
    value {
      s: ""
    }
  }
}
node {
  name: "training/Adadelta/Variable_12/Assign"
  op: "Assign"
  input: "training/Adadelta/Variable_12"
  input: "training/Adadelta/zeros_12"
  attr {
    key: "T"
    value {
      type: DT_FLOAT
    }
  }
  attr {
    key: "_class"
    value {
      list {
        s: "loc:@training/Adadelta/Variable_12"
      }
    }
  }
  attr {
    key: "use_locking"
    value {
      b: true
    }
  }
  attr {
    key: "validate_shape"
    value {
      b: true
    }
  }
}
node {
  name: "training/Adadelta/Variable_12/read"
  op: "Identity"
  input: "training/Adadelta/Variable_12"
  attr {
    key: "T"
    value {
      type: DT_FLOAT
    }
  }
  attr {
    key: "_class"
    value {
      list {
        s: "loc:@training/Adadelta/Variable_12"
      }
    }
  }
}
node {
  name: "training/Adadelta/zeros_13"
  op: "Const"
  attr {
    key: "dtype"
    value {
      type: DT_FLOAT
    }
  }
  attr {
    key: "value"
    value {
      tensor {
        dtype: DT_FLOAT
        tensor_shape {
          dim {
            size: 64
          }
        }
        float_val: 0.0
      }
    }
  }
}
node {
  name: "training/Adadelta/Variable_13"
  op: "VariableV2"
  attr {
    key: "container"
    value {
      s: ""
    }
  }
  attr {
    key: "dtype"
    value {
      type: DT_FLOAT
    }
  }
  attr {
    key: "shape"
    value {
      shape {
        dim {
          size: 64
        }
      }
    }
  }
  attr {
    key: "shared_name"
    value {
      s: ""
    }
  }
}
node {
  name: "training/Adadelta/Variable_13/Assign"
  op: "Assign"
  input: "training/Adadelta/Variable_13"
  input: "training/Adadelta/zeros_13"
  attr {
    key: "T"
    value {
      type: DT_FLOAT
    }
  }
  attr {
    key: "_class"
    value {
      list {
        s: "loc:@training/Adadelta/Variable_13"
      }
    }
  }
  attr {
    key: "use_locking"
    value {
      b: true
    }
  }
  attr {
    key: "validate_shape"
    value {
      b: true
    }
  }
}
node {
  name: "training/Adadelta/Variable_13/read"
  op: "Identity"
  input: "training/Adadelta/Variable_13"
  attr {
    key: "T"
    value {
      type: DT_FLOAT
    }
  }
  attr {
    key: "_class"
    value {
      list {
        s: "loc:@training/Adadelta/Variable_13"
      }
    }
  }
}
node {
  name: "training/Adadelta/zeros_14"
  op: "Const"
  attr {
    key: "dtype"
    value {
      type: DT_FLOAT
    }
  }
  attr {
    key: "value"
    value {
      tensor {
        dtype: DT_FLOAT
        tensor_shape {
          dim {
            size: 64
          }
          dim {
            size: 4
          }
        }
        float_val: 0.0
      }
    }
  }
}
node {
…
  input: "training/Adadelta/mul_24/x"
  input: "training/Adadelta/Variable_4/read"
  attr {
    key: "T"
    value {
      type: DT_FLOAT
    }
  }
}
node {
  name: "training/Adadelta/Square_8"
  op: "Square"
  input: "training/Adadelta/gradients/dense_2/MatMul_grad/MatMul_1"
  attr {
    key: "T"
    value {
      type: DT_FLOAT
    }
  }
}
node {
  name: "training/Adadelta/mul_25/x"
  op: "Const"
  attr {
    key: "dtype"
    value {
      type: DT_FLOAT
    }
  }
  attr {
    key: "value"
    value {
      tensor {
        dtype: DT_FLOAT
        tensor_shape {
        }
        float_val: 0.05000000074505806
      }
    }
  }
}
node {
  name: "training/Adadelta/mul_25"
  op: "Mul"
  input: "training/Adadelta/mul_25/x"
  input: "training/Adadelta/Square_8"
  attr {
    key: "T"
    value {
      type: DT_FLOAT
    }
  }
}
node {
  name: "training/Adadelta/add_16"
  op: "Add"
  input: "training/Adadelta/mul_24"
  input: "training/Adadelta/mul_25"
  attr {
    key: "T"
    value {
      type: DT_FLOAT
    }
  }
}
node {
  name: "training/Adadelta/Assign_12"
  op: "Assign"
  input: "training/Adadelta/Variable_4"
  input: "training/Adadelta/add_16"
  attr {
    key: "T"
    value {
      type: DT_FLOAT
    }
  }
  attr {
    key: "_class"
    value {
      list {
        s: "loc:@training/Adadelta/Variable_4"
      }
    }
  }
  attr {
    key: "use_locking"
    value {
      b: true
    }
  }
  attr {
    key: "validate_shape"
    value {
      b: true
    }
  }
}
node {
  name: "training/Adadelta/add_17/y"
  op: "Const"
  attr {
    key: "dtype"
    value {
      type: DT_FLOAT
    }
  }
  attr {
    key: "value"
    value {
      tensor {
        dtype: DT_FLOAT
        tensor_shape {
        }
        float_val: 1.0000000116860974e-07
      }
    }
  }
}
node {
  name: "training/Adadelta/add_17"
  op: "Add"
  input: "training/Adadelta/Variable_12/read"
  input: "training/Adadelta/add_17/y"
  attr {
    key: "T"
    value {
      type: DT_FLOAT
    }
  }
}
node {
  name: "training/Adadelta/Const_16"
  op: "Const"
  attr {
    key: "dtype"
    value {
      type: DT_FLOAT
    }
  }
  attr {
    key: "value"
    value {
      tensor {
        dtype: DT_FLOAT
        tensor_shape {
        }
        float_val: 0.0
      }
    }
  }
}
node {
  name: "training/Adadelta/Const_17"
  op: "Const"
  attr {
    key: "dtype"
    value {
      type: DT_FLOAT
    }
  }
  attr {
    key: "value"
    value {
      tensor {
        dtype: DT_FLOAT
        tensor_shape {
        }
        float_val: inf
      }
    }
  }
}
node {
  name: "training/Adadelta/clip_by_value_8"
  op: "ClipByValue"
  input: "training/Adadelta/add_17"
  input: "training/Adadelta/Const_16"
  input: "training/Adadelta/Const_17"
  attr {
    key: "T"
    value {
      type: DT_FLOAT
    }
  }
}
node {
  name: "training/Adadelta/Sqrt_8"
  op: "Sqrt"
  input: "training/Adadelta/clip_by_value_8"
  attr {
    key: "T"
    value {
      type: DT_FLOAT
    }
  }
}
node {
  name: "training/Adadelta/mul_26"
  op: "Mul"
  input: "training/Adadelta/gradients/dense_2/MatMul_grad/MatMul_1"
  input: "training/Adadelta/Sqrt_8"
  attr {
    key: "T"
    value {
      type: DT_FLOAT
    }
  }
}
node {
  name: "training/Adadelta/add_18/y"
  op: "Const"
  attr {
    key: "dtype"
    value {
      type: DT_FLOAT
    }
  }
  attr {
    key: "value"
    value {
      tensor {
        dtype: DT_FLOAT
        tensor_shape {
        }
        float_val: 1.0000000116860974e-07
      }
    }
  }
}
node {
  name: "training/Adadelta/add_18"
  op: "Add"
  input: "training/Adadelta/add_16"
  input: "training/Adadelta/add_18/y"
  attr {
    key: "T"
    value {
      type: DT_FLOAT
    }
  }
}
node {
  name: "training/Adadelta/Const_18"
  op: "Const"
  attr {
    key: "dtype"
    value {
      type: DT_FLOAT
    }
  }
  attr {
    key: "value"
    value {
      tensor {
        dtype: DT_FLOAT
        tensor_shape {
        }
        float_val: 0.0
      }
    }
  }
}
node {
  name: "training/Adadelta/Const_19"
  op: "Const"
  attr {
    key: "dtype"
    value {
      type: DT_FLOAT
    }
  }
  attr {
    key: "value"
    value {
      tensor {
        dtype: DT_FLOAT
        tensor_shape {
        }
        float_val: inf
      }
    }
  }
}
node {
  name: "training/Adadelta/clip_by_value_9"
  op: "ClipByValue"
  input: "training/Adadelta/add_18"
  input: "training/Adadelta/Const_18"
  input: "training/Adadelta/Const_19"
  attr {
    key: "T"
    value {
      type: DT_FLOAT
    }
  }
}
node {
  name: "training/Adadelta/Sqrt_9"
  op: "Sqrt"
  input: "training/Adadelta/clip_by_value_9"
  attr {
    key: "T"
    value {
      type: DT_FLOAT
    }
  }
}
node {
  name: "training/Adadelta/truediv_4"
  op: "RealDiv"
  input: "training/Adadelta/mul_26"
  input: "training/Adadelta/Sqrt_9"
  attr {
    key: "T"
    value {
      type: DT_FLOAT
    }
  }
}
node {
  name: "training/Adadelta/mul_27"
  op: "Mul"
  input: "Adadelta/lr/read"
  input: "training/Adadelta/truediv_4"
  attr {
    key: "T"
    value {
      type: DT_FLOAT
    }
  }
}
node {
  name: "training/Adadelta/sub_4"
  op: "Sub"
  input: "dense_2/kernel/read"
  input: "training/Adadelta/mul_27"
  attr {
    key: "T"
    value {
      type: DT_FLOAT
    }
  }
}
node {
  name: "training/Adadelta/Assign_13"
  op: "Assign"
  input: "dense_2/kernel"
  input: "training/Adadelta/sub_4"
  attr {
    key: "T"
    value {
      type: DT_FLOAT
    }
  }
  attr {
    key: "_class"
    value {
      list {
        s: "loc:@dense_2/kernel"
      }
    }
  }
  attr {
    key: "use_locking"
    value {
      b: true
    }
  }
  attr {
    key: "validate_shape"
    value {
      b: true
    }
  }
}
node {
  name: "training/Adadelta/mul_28/x"
  op: "Const"
  attr {
    key: "dtype"
    value {
      type: DT_FLOAT
    }
  }
  attr {
    key: "value"
    value {
      tensor {
        dtype: DT_FLOAT
        tensor_shape {
        }
        float_val: 0.949999988079071
      }
    }
  }
}
node {
  name: "training/Adadelta/mul_28"
  op: "Mul"
  input: "training/Adadelta/mul_28/x"
  input: "training/Adadelta/Variable_12/read"
  attr {
    key: "T"
    value {
      type: DT_FLOAT
    }
  }
}
node {
  name: "training/Adadelta/Square_9"
  op: "Square"
  input: "training/Adadelta/truediv_4"
  attr {
    key: "T"
    value {
      type: DT_FLOAT
    }
  }
}
node {
  name: "training/Adadelta/mul_29/x"
  op: "Const"
  attr {
    key: "dtype"
    value {
      type: DT_FLOAT
    }
  }
  attr {
    key: "value"
    value {
      tensor {
        dtype: DT_FLOAT
        tensor_shape {
        }
        float_val: 0.05000000074505806
      }
    }
  }
}
node {
  name: "training/Adadelta/mul_29"
  op: "Mul"
  input: "training/Adadelta/mul_29/x"
  input: "training/Adadelta/Square_9"
  attr {
    key: "T"
    value {
      type: DT_FLOAT
    }
  }
}
node {
  name: "training/Adadelta/add_19"
  op: "Add"
  input: "training/Adadelta/mul_28"
  input: "training/Adadelta/mul_29"
  attr {
    key: "T"
    value {
      type: DT_FLOAT
    }
  }
}
node {
  name: "training/Adadelta/Assign_14"
  op: "Assign"
  input: "training/Adadelta/Variable_12"
  input: "training/Adadelta/add_19"
  attr {
    key: "T"
    value {
      type: DT_FLOAT
    }
  }
  attr {
    key: "_class"
    value {
      list {
        s: "loc:@training/Adadelta/Variable_12"
      }
    }
  }
  attr {
    key: "use_locking"
    value {
      b: true
    }
  }
  attr {
    key: "validate_shape"
    value {
      b: true
    }
  }
}
node {
  name: "training/Adadelta/mul_30/x"
  op: "Const"
  attr {
    key: "dtype"
    value {
      type: DT_FLOAT
    }
  }
  attr {
    key: "value"
    value {
      tensor {
        dtype: DT_FLOAT
        tensor_shape {
        }
        float_val: 0.949999988079071
      }
    }
  }
}
node {
  name: "training/Adadelta/mul_30"
  op: "Mul"
  input: "training/Adadelta/mul_30/x"
  input: "training/Adadelta/Variable_5/read"
  attr {
    key: "T"
    value {
      type: DT_FLOAT
    }
  }
}
node {
  name: "training/Adadelta/Square_10"
  op: "Square"
  input: "training/Adadelta/gradients/dense_2/BiasAdd_grad/BiasAddGrad"
  attr {
    key: "T"
    value {
      type: DT_FLOAT
    }
  }
}
node {
  name: "training/Adadelta/mul_31/x"
  op: "Const"
  attr {
    key: "dtype"
    value {
      type: DT_FLOAT
    }
  }
  attr {
    key: "value"
    value {
      tensor {
        dtype: DT_FLOAT
        tensor_shape {
        }
        float_val: 0.05000000074505806
      }
    }
  }
}
node {
  name: "training/Adadelta/mul_31"
  op: "Mul"
  input: "training/Adadelta/mul_31/x"
  input: "training/Adadelta/Square_10"
  attr {
    key: "T"
    value {
      type: DT_FLOAT
    }
  }
}
node {
  name: "training/Adadelta/add_20"
  op: "Add"
  input: "training/Adadelta/mul_30"
  input: "training/Adadelta/mul_31"
  attr {
    key: "T"
    value {
      type: DT_FLOAT
    }
  }
}
node {
  name: "training/Adadelta/Assign_15"
  op: "Assign"
  input: "training/Adadelta/Variable_5"
  input: "training/Adadelta/add_20"
  attr {
    key: "T"
    value {
      type: DT_FLOAT
    }
  }
  attr {
    key: "_class"
    value {
      list {
        s: "loc:@training/Adadelta/Variable_5"
      }
    }
  }
  attr {
    key: "use_locking"
    value {
      b: true
    }
  }
  attr {
    key: "validate_shape"
    value {
      b: true
    }
  }
}
node {
  name: "training/Adadelta/add_21/y"
  op: "Const"
  attr {
    key: "dtype"
    value {
      type: DT_FLOAT
    }
  }
  attr {
    key: "value"
    value {
      tensor {
        dtype: DT_FLOAT
        tensor_shape {
        }
        float_val: 1.0000000116860974e-07
      }
    }
  }
}
node {
  name: "training/Adadelta/add_21"
  op: "Add"
  input: "training/Adadelta/Variable_13/read"
  input: "training/Adadelta/add_21/y"
  attr {
    key: "T"
    value {
      type: DT_FLOAT
    }
  }
}
node {
  name: "training/Adadelta/Const_20"
  op: "Const"
  attr {
    key: "dtype"
    value {
      type: DT_FLOAT
    }
  }
  attr {
    key: "value"
    value {
      tensor {
        dtype: DT_FLOAT
        tensor_shape {
        }
        float_val: 0.0
      }
    }
  }
}
node {
  name: "training/Adadelta/Const_21"
  op: "Const"
  attr {
    key: "dtype"
    value {
      type: DT_FLOAT
    }
  }
  attr {
    key: "value"
    value {
      tensor {
        dtype: DT_FLOAT
        tensor_shape {
        }
        float_val: inf
      }
    }
  }
}
node {
  name: "training/Adadelta/clip_by_value_10"
  op: "ClipByValue"
  input: "training/Adadelta/add_21"
  input: "training/Adadelta/Const_20"
  input: "training/Adadelta/Const_21"
  attr {
    key: "T"
    value {
      type: DT_FLOAT
    }
  }
}
node {
  name: "training/Adadelta/Sqrt_10"
  op: "Sqrt"
  input: "training/Adadelta/clip_by_value_10"
  attr {
    key: "T"
    value {
      type: DT_FLOAT
    }
  }
}
node {
  name: "training/Adadelta/mul_32"
  op: "Mul"
  input: "training/Adadelta/gradients/dense_2/BiasAdd_grad/BiasAddGrad"
  input: "training/Adadelta/Sqrt_10"
  attr {
    key: "T"
    value {
      type: DT_FLOAT
    }
  }
}
node {
  name: "training/Adadelta/add_22/y"
  op: "Const"
  attr {
    key: "dtype"
    value {
      type: DT_FLOAT
    }
  }
  attr {
    key: "value"
    value {
      tensor {
        dtype: DT_FLOAT
        tensor_shape {
        }
        float_val: 1.0000000116860974e-07
      }
    }
  }
}
node {
  name: "training/Adadelta/add_22"
  op: "Add"
  input: "training/Adadelta/add_20"
  input: "training/Adadelta/add_22/y"
  attr {
    key: "T"
    value {
      type: DT_FLOAT
    }
  }
}
node {
  name: "training/Adadelta/Const_22"
  op: "Const"
  attr {
    key: "dtype"
    value {
      type: DT_FLOAT
    }
  }
  attr {
    key: "value"
    value {
      tensor {
        dtype: DT_FLOAT
        tensor_shape {
        }
        float_val: 0.0
      }
    }
  }
}
node {
  name: "training/Adadelta/Const_23"
  op: "Const"
  attr {
    key: "dtype"
    value {
      type: DT_FLOAT
    }
  }
  attr {
    key: "value"
    value {
      tensor {
        dtype: DT_FLOAT
        tensor_shape {
        }
        float_val: inf
      }
    }
  }
}
node {
  name: "training/Adadelta/clip_by_value_11"
  op: "ClipByValue"
  input: "training/Adadelta/add_22"
  input: "training/Adadelta/Const_22"
  input: "training/Adadelta/Const_23"
  attr {
    key: "T"
    value {
      type: DT_FLOAT
    }
  }
}
node {
  name: "training/Adadelta/Sqrt_11"
  op: "Sqrt"
  input: "training/Adadelta/clip_by_value_11"
  attr {
    key: "T"
    value {
      type: DT_FLOAT
    }
  }
}
node {
  name: "training/Adadelta/truediv_5"
  op: "RealDiv"
  input: "training/Adadelta/mul_32"
  input: "training/Adadelta/Sqrt_11"
  attr {
    key: "T"
    value {
      type: DT_FLOAT
    }
  }
}
node {
  name: "training/Adadelta/mul_33"
  op: "Mul"
  input: "Adadelta/lr/read"
  input: "training/Adadelta/truediv_5"
  attr {
    key: "T"
    value {
      type: DT_FLOAT
    }
  }
}
node {
  name: "training/Adadelta/sub_5"
  op: "Sub"
  input: "dense_2/bias/read"
  input: "training/Adadelta/mul_33"
  attr {
    key: "T"
    value {
      type: DT_FLOAT
    }
  }
}
node {
  name: "training/Adadelta/Assign_16"
  op: "Assign"
  input: "dense_2/bias"
  input: "training/Adadelta/sub_5"
  attr {
    key: "T"
    value {
      type: DT_FLOAT
    }
  }
  attr {
    key: "_class"
    value {
      list {
        s: "loc:@dense_2/bias"
      }
    }
  }
  attr {
    key: "use_locking"
    value {
      b: true
    }
  }
  attr {
    key: "validate_shape"
    value {
      b: true
    }
  }
}
node {
  name: "training/Adadelta/mul_34/x"
  op: "Const"
  attr {
    key: "dtype"
    value {
      type: DT_FLOAT
    }
  }
  attr {
    key: "value"
    value {
      tensor {
        dtype: DT_FLOAT
        tensor_shape {
        }
        float_val: 0.949999988079071
      }
    }
  }
}
node {
  name: "training/Adadelta/mul_34"
  op: "Mul"
  input: "training/Adadelta/mul_34/x"
  input: "training/Adadelta/Variable_13/read"
  attr {
    key: "T"
    value {
      type: DT_FLOAT
    }
  }
}
node {
  name: "training/Adadelta/Square_11"
  op: "Square"
  input: "training/Adadelta/truediv_5"
  attr {
    key: "T"
    value {
      type: DT_FLOAT
    }
  }
}
node {
  name: "training/Adadelta/mul_35/x"
  op: "Const"
  attr {
    key: "dtype"
    value {
      type: DT_FLOAT
    }
  }
  attr {
    key: "value"
    value {
      tensor {
        dtype: DT_FLOAT
        tensor_shape {
        }
        float_val: 0.05000000074505806
      }
    }
  }
}
node {
  name: "training/Adadelta/mul_35"
  op: "Mul"
  input: "training/Adadelta/mul_35/x"
  input: "training/Adadelta/Square_11"
  attr {
    key: "T"
    value {
      type: DT_FLOAT
    }
  }
}
node {
  name: "training/Adadelta/add_23"
  op: "Add"
  input: "training/Adadelta/mul_34"
  input: "training/Adadelta/mul_35"
  attr {
    key: "T"
    value {
      type: DT_FLOAT
    }
  }
}
node {
  name: "training/Adadelta/Assign_17"
  op: "Assign"
  input: "training/Adadelta/Variable_13"
  input: "training/Adadelta/add_23"
  attr {
    key: "T"
    value {
      type: DT_FLOAT
    }
  }
  attr {
    key: "_class"
    value {
      list {
        s: "loc:@training/Adadelta/Variable_13"
      }
    }
  }
  attr {
    key: "use_locking"
    value {
      b: true
    }
  }
  attr {
    key: "validate_shape"
    value {
      b: true
    }
  }
}
node {
  name: "training/Adadelta/mul_36/x"
  op: "Const"
  attr {
    key: "dtype"
    value {
      type: DT_FLOAT
    }
  }
  attr {
    key: "value"
    value {
      tensor {
        dtype: DT_FLOAT
        tensor_shape {
        }
        float_val: 0.949999988079071
      }
    }
  }
}
node {
  name: "training/Adadelta/mul_36"
  op: "Mul"
  input: "training/Adadelta/mul_36/x"
  input: "training/Adadelta/Variable_6/read"
  attr {
    key: "T"
    value {
      type: DT_FLOAT
    }
  }
}
node {
  name: "training/Adadelta/Square_12"
  op: "Square"
  input: "training/Adadelta/gradients/dense_3/MatMul_grad/MatMul_1"
  attr {
    key: "T"
    value {
      type: DT_FLOAT
    }
  }
}
node {
  name: "training/Adadelta/mul_37/x"
  op: "Const"
  attr {
    key: "dtype"
    value {
      type: DT_FLOAT
    }
  }
  attr {
    key: "value"
    value {
      tensor {
        dtype: DT_FLOAT
        tensor_shape {
        }
        float_val: 0.05000000074505806
      }
    }
  }
}
node {
  name: "training/Adadelta/mul_37"
  op: "Mul"
  input: "training/Adadelta/mul_37/x"
  input: "training/Adadelta/Square_12"
  attr {
    key: "T"
    value {
      type: DT_FLOAT
    }
  }
}
node {
  name: "training/Adadelta/add_24"
  op: "Add"
  input: "training/Adadelta/mul_36"
  input: "training/Adadelta/mul_37"
  attr {
    key: "T"
    value {
      type: DT_FLOAT
    }
  }
}
node {
  name: "training/Adadelta/Assign_18"
  op: "Assign"
  input: "training/Adadelta/Variable_6"
  input: "training/Adadelta/add_24"
  attr {
    key: "T"
    value {
      type: DT_FLOAT
    }
  }
  attr {
    key: "_class"
    value {
      list {
        s: "loc:@training/Adadelta/Variable_6"
      }
    }
  }
  attr {
    key: "use_locking"
    value {
      b: true
    }
  }
  attr {
    key: "validate_shape"
    value {
      b: true
    }
  }
}
node {
  name: "training/Adadelta/add_25/y"
  op: "Const"
  attr {
    key: "dtype"
    value {
      type: DT_FLOAT
    }
  }
  attr {
    key: "value"
    value {
      tensor {
        dtype: DT_FLOAT
        tensor_shape {
        }
        float_val: 1.0000000116860974e-07
      }
    }
  }
}
node {
  name: "training/Adadelta/add_25"
  op: "Add"
  input: "training/Adadelta/Variable_14/read"
  input: "training/Adadelta/add_25/y"
  attr {
    key: "T"
    value {
      type: DT_FLOAT
    }
  }
}
node {
  name: "training/Adadelta/Const_24"
  op: "Const"
  attr {
    key: "dtype"
    value {
      type: DT_FLOAT
    }
  }
  attr {
    key: "value"
    value {
      tensor {
        dtype: DT_FLOAT
        tensor_shape {
        }
        float_val: 0.0
      }
    }
  }
}
node {
  name: "training/Adadelta/Const_25"
  op: "Const"
  attr {
    key: "dtype"
    value {
      type: DT_FLOAT
    }
  }
  attr {
    key: "value"
    value {
      tensor {
        dtype: DT_FLOAT
        tensor_shape {
        }
        float_val: inf
      }
    }
  }
}
node {
  name: "training/Adadelta/clip_by_value_12"
  op: "ClipByValue"
  input: "training/Adadelta/add_25"
  input: "training/Adadelta/Const_24"
  input: "training/Adadelta/Const_25"
  attr {
    key: "T"
    value {
      type: DT_FLOAT
    }
  }
}
node {
  name: "training/Adadelta/Sqrt_12"
  op: "Sqrt"
  input: "training/Adadelta/clip_by_value_12"
  attr {
    key: "T"
    value {
      type: DT_FLOAT
    }
  }
}
node {
  name: "training/Adadelta/mul_38"
  op: "Mul"
  input: "training/Adadelta/gradients/dense_3/MatMul_grad/MatMul_1"
  input: "training/Adadelta/Sqrt_12"
  attr {
    key: "T"
    value {
      type: DT_FLOAT
    }
  }
}
node {
  name: "training/Adadelta/add_26/y"
  op: "Const"
  attr {
    key: "dtype"
    value {
      type: DT_FLOAT
    }
  }
  attr {
    key: "value"
    value {
      tensor {
        dtype: DT_FLOAT
        tensor_shape {
        }
        float_val: 1.0000000116860974e-07
      }
    }
  }
}
node {
  name: "training/Adadelta/add_26"
  op: "Add"
  input: "training/Adadelta/add_24"
  input: "training/Adadelta/add_26/y"
  attr {
    key: "T"
    value {
      type: DT_FLOAT
    }
  }
}
node {
  name: "training/Adadelta/Const_26"
  op: "Const"
  attr {
    key: "dtype"
    value {
      type: DT_FLOAT
    }
  }
  attr {
    key: "value"
    value {
      tensor {
        dtype: DT_FLOAT
        tensor_shape {
        }
        float_val: 0.0
      }
    }
  }
}
node {
  name: "training/Adadelta/Const_27"
  op: "Const"
  attr {
    key: "dtype"
    value {
      type: DT_FLOAT
    }
  }
  attr {
    key: "value"
    value {
      tensor {
        dtype: DT_FLOAT
        tensor_shape {
        }
        float_val: inf
      }
    }
  }
}
node {
  name: "training/Adadelta/clip_by_value_13"
  op: "ClipByValue"
  input: "training/Adadelta/add_26"
  input: "training/Adadelta/Const_26"
  input: "training/Adadelta/Const_27"
  attr {
    key: "T"
    value {
      type: DT_FLOAT
    }
  }
}
node {
  name: "training/Adadelta/Sqrt_13"
  op: "Sqrt"
  input: "training/Adadelta/clip_by_value_13"
  attr {
    key: "T"
    value {
      type: DT_FLOAT
    }
  }
}
node {
  name: "training/Adadelta/truediv_6"
  op: "RealDiv"
  input: "training/Adadelta/mul_38"
  input: "training/Adadelta/Sqrt_13"
  attr {
    key: "T"
    value {
      type: DT_FLOAT
    }
  }
}
node {
  name: "training/Adadelta/mul_39"
  op: "Mul"
  input: "Adadelta/lr/read"
  input: "training/Adadelta/truediv_6"
  attr {
    key: "T"
    value {
      type: DT_FLOAT
    }
  }
}
node {
  name: "training/Adadelta/sub_6"
  op: "Sub"
  input: "dense_3/kernel/read"
  input: "training/Adadelta/mul_39"
  attr {
    key: "T"
    value {
      type: DT_FLOAT
    }
  }
}
node {
  name: "training/Adadelta/Assign_19"
  op: "Assign"
  input: "dense_3/kernel"
  input: "training/Adadelta/sub_6"
  attr {
    key: "T"
    value {
      type: DT_FLOAT
    }
  }
  attr {
    key: "_class"
    value {
      list {
        s: "loc:@dense_3/kernel"
      }
    }
  }
  attr {
    key: "use_locking"
    value {
      b: true
    }
  }
  attr {
    key: "validate_shape"
    value {
      b: true
    }
  }
}
node {
  name: "training/Adadelta/mul_40/x"
  op: "Const"
  attr {
    key: "dtype"
    value {
      type: DT_FLOAT
    }
  }
  attr {
    key: "value"
    value {
      tensor {
        dtype: DT_FLOAT
        tensor_shape {
        }
        float_val: 0.949999988079071
      }
    }
  }
}
node {
  name: "training/Adadelta/mul_40"
  op: "Mul"
  input: "training/Adadelta/mul_40/x"
  input: "training/Adadelta/Variable_14/read"
  attr {
    key: "T"
    value {
      type: DT_FLOAT
    }
  }
}
node {
  name: "training/Adadelta/Square_13"
  op: "Square"
  input: "training/Adadelta/truediv_6"
  attr {
    key: "T"
    value {
      type: DT_FLOAT
    }
  }
}
node {
  name: "training/Adadelta/mul_41/x"
  op: "Const"
  attr {
    key: "dtype"
    value {
      type: DT_FLOAT
    }
  }
  attr {
    key: "value"
    value {
      tensor {
        dtype: DT_FLOAT
        tensor_shape {
        }
        float_val: 0.05000000074505806
      }
    }
  }
}
node {
  name: "training/Adadelta/mul_41"
  op: "Mul"
  input: "training/Adadelta/mul_41/x"
  input: "training/Adadelta/Square_13"
  attr {
    key: "T"
    value {
      type: DT_FLOAT
    }
  }
}
node {
  name: "training/Adadelta/add_27"
  op: "Add"
  input: "training/Adadelta/mul_40"
  input: "training/Adadelta/mul_41"
  attr {
    key: "T"
    value {
      type: DT_FLOAT
    }
  }
}
node {
  name: "training/Adadelta/Assign_20"
  op: "Assign"
  input: "training/Adadelta/Variable_14"
  input: "training/Adadelta/add_27"
  attr {
    key: "T"
    value {
      type: DT_FLOAT
    }
  }
  attr {
    key: "_class"
    value {
      list {
        s: "loc:@training/Adadelta/Variable_14"
      }
    }
  }
  attr {
    key: "use_locking"
    value {
      b: true
    }
  }
  attr {
    key: "validate_shape"
    value {
      b: true
    }
  }
}
node {
  name: "training/Adadelta/mul_42/x"
  op: "Const"
  attr {
    key: "dtype"
    value {
      type: DT_FLOAT
    }
  }
  attr {
    key: "value"
    value {
      tensor {
        dtype: DT_FLOAT
        tensor_shape {
        }
        float_val: 0.949999988079071
      }
    }
  }
}
node {
  name: "training/Adadelta/mul_42"
  op: "Mul"
  input: "training/Adadelta/mul_42/x"
  input: "training/Adadelta/Variable_7/read"
  attr {
    key: "T"
    value {
      type: DT_FLOAT
    }
  }
}
node {
  name: "training/Adadelta/Square_14"
  op: "Square"
  input: "training/Adadelta/gradients/dense_3/BiasAdd_grad/BiasAddGrad"
  attr {
    key: "T"
    value {
      type: DT_FLOAT
    }
  }
}
node {
  name: "training/Adadelta/mul_43/x"
  op: "Const"
  attr {
    key: "dtype"
    value {
      type: DT_FLOAT
    }
  }
  attr {
    key: "value"
    value {
      tensor {
        dtype: DT_FLOAT
        tensor_shape {
        }
        float_val: 0.05000000074505806
      }
    }
  }
}
node {
  name: "training/Adadelta/mul_43"
  op: "Mul"
  input: "training/Adadelta/mul_43/x"
  input: "training/Adadelta/Square_14"
  attr {
    key: "T"
    value {
      type: DT_FLOAT
    }
  }
}
node {
  name: "training/Adadelta/add_28"
  op: "Add"
  input: "training/Adadelta/mul_42"
  input: "training/Adadelta/mul_43"
  attr {
    key: "T"
    value {
      type: DT_FLOAT
    }
  }
}
node {
  name: "training/Adadelta/Assign_21"
  op: "Assign"
  input: "training/Adadelta/Variable_7"
  input: "training/Adadelta/add_28"
  attr {
    key: "T"
    value {
      type: DT_FLOAT
    }
  }
  attr {
    key: "_class"
    value {
      list {
        s: "loc:@training/Adadelta/Variable_7"
      }
    }
  }
  attr {
    key: "use_locking"
    value {
      b: true
    }
  }
  attr {
    key: "validate_shape"
    value {
      b: true
    }
  }
}
node {
  name: "training/Adadelta/add_29/y"
  op: "Const"
  attr {
    key: "dtype"
    value {
      type: DT_FLOAT
    }
  }
  attr {
    key: "value"
    value {
      tensor {
        dtype: DT_FLOAT
        tensor_shape {
        }
        float_val: 1.0000000116860974e-07
      }
    }
  }
}
node {
  name: "training/Adadelta/add_29"
  op: "Add"
  input: "training/Adadelta/Variable_15/read"
  input: "training/Adadelta/add_29/y"
  attr {
    key: "T"
    value {
      type: DT_FLOAT
    }
  }
}
node {
  name: "training/Adadelta/Const_28"
  op: "Const"
  attr {
    key: "dtype"
    value {
      type: DT_FLOAT
    }
  }
  attr {
    key: "value"
    value {
      tensor {
        dtype: DT_FLOAT
        tensor_shape {
        }
        float_val: 0.0
      }
    }
  }
}
node {
  name: "training/Adadelta/Const_29"
  op: "Const"
  attr {
    key: "dtype"
    value {
      type: DT_FLOAT
    }
  }
  attr {
    key: "value"
    value {
      tensor {
        dtype: DT_FLOAT
        tensor_shape {
        }
        float_val: inf
      }
    }
  }
}
node {
  name: "training/Adadelta/clip_by_value_14"
  op: "ClipByValue"
  input: "training/Adadelta/add_29"
  input: "training/Adadelta/Const_28"
  input: "training/Adadelta/Const_29"
  attr {
    key: "T"
    value {
      type: DT_FLOAT
    }
  }
}
node {
  name: "training/Adadelta/Sqrt_14"
  op: "Sqrt"
  input: "training/Adadelta/clip_by_value_14"
  attr {
    key: "T"
    value {
      type: DT_FLOAT
    }
  }
}
node {
  name: "training/Adadelta/mul_44"
  op: "Mul"
  input: "training/Adadelta/gradients/dense_3/BiasAdd_grad/BiasAddGrad"
  input: "training/Adadelta/Sqrt_14"
  attr {
    key: "T"
    value {
      type: DT_FLOAT
    }
  }
}
node {
  name: "training/Adadelta/add_30/y"
  op: "Const"
  attr {
    key: "dtype"
    value {
      type: DT_FLOAT
    }
  }
  attr {
    key: "value"
    value {
      tensor {
        dtype: DT_FLOAT
        tensor_shape {
        }
        float_val: 1.0000000116860974e-07
      }
    }
  }
}
node {
  name: "training/Adadelta/add_30"
  op: "Add"
  input: "training/Adadelta/add_28"
  input: "training/Adadelta/add_30/y"
  attr {
    key: "T"
    value {
      type: DT_FLOAT
    }
  }
}
node {
  name: "training/Adadelta/Const_30"
  op: "Const"
  attr {
    key: "dtype"
    value {
      type: DT_FLOAT
    }
  }
  attr {
    key: "value"
    value {
      tensor {
        dtype: DT_FLOAT
        tensor_shape {
        }
        float_val: 0.0
      }
    }
  }
}
node {
  name: "training/Adadelta/Const_31"
  op: "Const"
  attr {
    key: "dtype"
    value {
      type: DT_FLOAT
    }
  }
  attr {
    key: "value"
    value {
      tensor {
        dtype: DT_FLOAT
        tensor_shape {
        }
        float_val: inf
      }
    }
  }
}
node {
  name: "training/Adadelta/clip_by_value_15"
  op: "ClipByValue"
  input: "training/Adadelta/add_30"
  input: "training/Adadelta/Const_30"
  input: "training/Adadelta/Const_31"
  attr {
    key: "T"
    value {
      type: DT_FLOAT
    }
  }
}
node {
  name: "training/Adadelta/Sqrt_15"
  op: "Sqrt"
  input: "training/Adadelta/clip_by_value_15"
  attr {
    key: "T"
    value {
      type: DT_FLOAT
    }
  }
}
node {
  name: "training/Adadelta/truediv_7"
  op: "RealDiv"
  input: "training/Adadelta/mul_44"
  input: "training/Adadelta/Sqrt_15"
  attr {
    key: "T"
    value {
      type: DT_FLOAT
    }
  }
}
node {
  name: "training/Adadelta/mul_45"
  op: "Mul"
  input: "Adadelta/lr/read"
  input: "training/Adadelta/truediv_7"
  attr {
    key: "T"
    value {
      type: DT_FLOAT
    }
  }
}
node {
  name: "training/Adadelta/sub_7"
  op: "Sub"
  input: "dense_3/bias/read"
  input: "training/Adadelta/mul_45"
  attr {
    key: "T"
    value {
      type: DT_FLOAT
    }
  }
}
node {
  name: "training/Adadelta/Assign_22"
  op: "Assign"
  input: "dense_3/bias"
  input: "training/Adadelta/sub_7"
  attr {
    key: "T"
    value {
      type: DT_FLOAT
    }
  }
  attr {
    key: "_class"
    value {
      list {
        s: "loc:@dense_3/bias"
      }
    }
  }
  attr {
    key: "use_locking"
    value {
      b: true
    }
  }
  attr {
    key: "validate_shape"
    value {
      b: true
    }
  }
}
node {
  name: "training/Adadelta/mul_46/x"
  op: "Const"
  attr {
    key: "dtype"
    value {
      type: DT_FLOAT
    }
  }
  attr {
    key: "value"
    value {
      tensor {
        dtype: DT_FLOAT
        tensor_shape {
        }
        float_val: 0.949999988079071
      }
    }
  }
}
node {
  name: "training/Adadelta/mul_46"
  op: "Mul"
  input: "training/Adadelta/mul_46/x"
  input: "training/Adadelta/Variable_15/read"
  attr {
    key: "T"
    value {
      type: DT_FLOAT
    }
  }
}
node {
  name: "training/Adadelta/Square_15"
  op: "Square"
  input: "training/Adadelta/truediv_7"
  attr {
    key: "T"
    value {
      type: DT_FLOAT
    }
  }
}
node {
  name: "training/Adadelta/mul_47/x"
  op: "Const"
  attr {
    key: "dtype"
    value {
      type: DT_FLOAT
    }
  }
  attr {
    key: "value"
    value {
      tensor {
        dtype: DT_FLOAT
        tensor_shape {
        }
        float_val: 0.05000000074505806
      }
    }
  }
}
node {
  name: "training/Adadelta/mul_47"
  op: "Mul"
  input: "training/Adadelta/mul_47/x"
  input: "training/Adadelta/Square_15"
  attr {
    key: "T"
    value {
      type: DT_FLOAT
    }
  }
}
node {
  name: "training/Adadelta/add_31"
  op: "Add"
  input: "training/Adadelta/mul_46"
  input: "training/Adadelta/mul_47"
  attr {
    key: "T"
    value {
      type: DT_FLOAT
    }
  }
}
node {
  name: "training/Adadelta/Assign_23"
  op: "Assign"
  input: "training/Adadelta/Variable_15"
  input: "training/Adadelta/add_31"
  attr {
    key: "T"
    value {
      type: DT_FLOAT
    }
  }
  attr {
    key: "_class"
    value {
      list {
        s: "loc:@training/Adadelta/Variable_15"
      }
    }
  }
  attr {
    key: "use_locking"
    value {
      b: true
    }
  }
  attr {
    key: "validate_shape"
    value {
      b: true
    }
  }
}
node {
  name: "training/group_deps"
  op: "NoOp"
  input: "^loss/mul"
  input: "^metrics/acc/Mean"
  input: "^training/Adadelta/Assign"
  input: "^training/Adadelta/AssignAdd"
  input: "^training/Adadelta/Assign_1"
  input: "^training/Adadelta/Assign_10"
  input: "^training/Adadelta/Assign_11"
  input: "^training/Adadelta/Assign_12"
  input: "^training/Adadelta/Assign_13"
  input: "^training/Adadelta/Assign_14"
  input: "^training/Adadelta/Assign_15"
  input: "^training/Adadelta/Assign_16"
  input: "^training/Adadelta/Assign_17"
  input: "^training/Adadelta/Assign_18"
  input: "^training/Adadelta/Assign_19"
  input: "^training/Adadelta/Assign_2"
  input: "^training/Adadelta/Assign_20"
  input: "^training/Adadelta/Assign_21"
  input: "^training/Adadelta/Assign_22"
  input: "^training/Adadelta/Assign_23"
  input: "^training/Adadelta/Assign_3"
  input: "^training/Adadelta/Assign_4"
  input: "^training/Adadelta/Assign_5"
  input: "^training/Adadelta/Assign_6"
  input: "^training/Adadelta/Assign_7"
  input: "^training/Adadelta/Assign_8"
  input: "^training/Adadelta/Assign_9"
}
node {
  name: "IsVariableInitialized_8"
  op: "IsVariableInitialized"
  input: "Adadelta/lr"
  attr {
    key: "_class"
    value {
      list {
        s: "loc:@Adadelta/lr"
      }
    }
  }
  attr {
    key: "dtype"
    value {
      type: DT_FLOAT
    }
  }
}
node {
  name: "IsVariableInitialized_9"
  op: "IsVariableInitialized"
  input: "Adadelta/decay"
  attr {
    key: "_class"
    value {
      list {
        s: "loc:@Adadelta/decay"
      }
    }
  }
  attr {
    key: "dtype"
    value {
      type: DT_FLOAT
    }
  }
}
node {
  name: "IsVariableInitialized_10"
  op: "IsVariableInitialized"
  input: "Adadelta/iterations"
  attr {
    key: "_class"
    value {
      list {
        s: "loc:@Adadelta/iterations"
      }
    }
  }
  attr {
    key: "dtype"
    value {
      type: DT_INT64
    }
  }
}
node {
  name: "IsVariableInitialized_11"
  op: "IsVariableInitialized"
  input: "training/Adadelta/Variable"
  attr {
    key: "_class"
    value {
      list {
        s: "loc:@training/Adadelta/Variable"
      }
    }
  }
  attr {
    key: "dtype"
    value {
      type: DT_FLOAT
    }
  }
}
node {
  name: "IsVariableInitialized_12"
  op: "IsVariableInitialized"
  input: "training/Adadelta/Variable_1"
  attr {
    key: "_class"
    value {
      list {
        s: "loc:@training/Adadelta/Variable_1"
      }
    }
  }
  attr {
    key: "dtype"
    value {
      type: DT_FLOAT
    }
  }
}
node {
  name: "IsVariableInitialized_13"
  op: "IsVariableInitialized"
  input: "training/Adadelta/Variable_2"
  attr {
    key: "_class"
    value {
      list {
        s: "loc:@training/Adadelta/Variable_2"
      }
    }
  }
  attr {
    key: "dtype"
    value {
      type: DT_FLOAT
    }
  }
}
node {
  name: "IsVariableInitialized_14"
  op: "IsVariableInitialized"
  input: "training/Adadelta/Variable_3"
  attr {
    key: "_class"
    value {
      list {
        s: "loc:@training/Adadelta/Variable_3"
      }
    }
  }
  attr {
    key: "dtype"
    value {
      type: DT_FLOAT
    }
  }
}
node {
  name: "IsVariableInitialized_15"
  op: "IsVariableInitialized"
  input: "training/Adadelta/Variable_4"
  attr {
    key: "_class"
    value {
      list {
        s: "loc:@training/Adadelta/Variable_4"
      }
    }
  }
  attr {
    key: "dtype"
    value {
      type: DT_FLOAT
    }
  }
}
node {
  name: "IsVariableInitialized_16"
  op: "IsVariableInitialized"
  input: "training/Adadelta/Variable_5"
  attr {
    key: "_class"
    value {
      list {
        s: "loc:@training/Adadelta/Variable_5"
      }
    }
  }
  attr {
    key: "dtype"
    value {
      type: DT_FLOAT
    }
  }
}
node {
  name: "IsVariableInitialized_17"
  op: "IsVariableInitialized"
  input: "training/Adadelta/Variable_6"
  attr {
    key: "_class"
    value {
      list {
        s: "loc:@training/Adadelta/Variable_6"
      }
    }
  }
  attr {
    key: "dtype"
    value {
      type: DT_FLOAT
    }
  }
}
node {
  name: "IsVariableInitialized_18"
  op: "IsVariableInitialized"
  input: "training/Adadelta/Variable_7"
  attr {
    key: "_class"
    value {
      list {
        s: "loc:@training/Adadelta/Variable_7"
      }
    }
  }
  attr {
    key: "dtype"
    value {
      type: DT_FLOAT
    }
  }
}
node {
  name: "IsVariableInitialized_19"
  op: "IsVariableInitialized"
  input: "training/Adadelta/Variable_8"
  attr {
    key: "_class"
    value {
      list {
        s: "loc:@training/Adadelta/Variable_8"
      }
    }
  }
  attr {
    key: "dtype"
    value {
      type: DT_FLOAT
    }
  }
}
node {
  name: "IsVariableInitialized_20"
  op: "IsVariableInitialized"
  input: "training/Adadelta/Variable_9"
  attr {
    key: "_class"
    value {
      list {
        s: "loc:@training/Adadelta/Variable_9"
      }
    }
  }
  attr {
    key: "dtype"
    value {
      type: DT_FLOAT
    }
  }
}
node {
  name: "IsVariableInitialized_21"
  op: "IsVariableInitialized"
  input: "training/Adadelta/Variable_10"
  attr {
    key: "_class"
    value {
      list {
        s: "loc:@training/Adadelta/Variable_10"
      }
    }
  }
  attr {
    key: "dtype"
    value {
      type: DT_FLOAT
    }
  }
}
node {
  name: "IsVariableInitialized_22"
  op: "IsVariableInitialized"
  input: "training/Adadelta/Variable_11"
  attr {
    key: "_class"
    value {
      list {
        s: "loc:@training/Adadelta/Variable_11"
      }
    }
  }
  attr {
    key: "dtype"
    value {
      type: DT_FLOAT
    }
  }
}
node {
  name: "IsVariableInitialized_23"
  op: "IsVariableInitialized"
  input: "training/Adadelta/Variable_12"
  attr {
    key: "_class"
    value {
      list {
        s: "loc:@training/Adadelta/Variable_12"
      }
    }
  }
  attr {
    key: "dtype"
    value {
      type: DT_FLOAT
    }
  }
}
node {
  name: "IsVariableInitialized_24"
  op: "IsVariableInitialized"
  input: "training/Adadelta/Variable_13"
  attr {
    key: "_class"
    value {
      list {
        s: "loc:@training/Adadelta/Variable_13"
      }
    }
  }
  attr {
    key: "dtype"
    value {
      type: DT_FLOAT
    }
  }
}
node {
  name: "IsVariableInitialized_25"
  op: "IsVariableInitialized"
  input: "training/Adadelta/Variable_14"
  attr {
    key: "_class"
    value {
      list {
        s: "loc:@training/Adadelta/Variable_14"
      }
    }
  }
  attr {
    key: "dtype"
    value {
      type: DT_FLOAT
    }
  }
}
node {
  name: "IsVariableInitialized_26"
  op: "IsVariableInitialized"
  input: "training/Adadelta/Variable_15"
  attr {
    key: "_class"
    value {
      list {
        s: "loc:@training/Adadelta/Variable_15"
      }
    }
  }
  attr {
    key: "dtype"
    value {
      type: DT_FLOAT
    }
  }
}
node {
  name: "init_1"
  op: "NoOp"
  input: "^Adadelta/decay/Assign"
  input: "^Adadelta/iterations/Assign"
  input: "^Adadelta/lr/Assign"
  input: "^training/Adadelta/Variable/Assign"
  input: "^training/Adadelta/Variable_1/Assign"
  input: "^training/Adadelta/Variable_10/Assign"
  input: "^training/Adadelta/Variable_11/Assign"
  input: "^training/Adadelta/Variable_12/Assign"
  input: "^training/Adadelta/Variable_13/Assign"
  input: "^training/Adadelta/Variable_14/Assign"
  input: "^training/Adadelta/Variable_15/Assign"
  input: "^training/Adadelta/Variable_2/Assign"
  input: "^training/Adadelta/Variable_3/Assign"
  input: "^training/Adadelta/Variable_4/Assign"
  input: "^training/Adadelta/Variable_5/Assign"
  input: "^training/Adadelta/Variable_6/Assign"
  input: "^training/Adadelta/Variable_7/Assign"
  input: "^training/Adadelta/Variable_8/Assign"
  input: "^training/Adadelta/Variable_9/Assign"
}
node {
  name: "Placeholder_8"
  op: "Placeholder"
  attr {
    key: "dtype"
    value {
      type: DT_FLOAT
    }
  }
  attr {
    key: "shape"
    value {
      shape {
        dim {
          size: 2
        }
        dim {
          size: 2
        }
        dim {
          size: 1
        }
        dim {
          size: 100
        }
      }
    }
  }
}
node {
  name: "Assign_8"
  op: "Assign"
  input: "training/Adadelta/Variable"
  input: "Placeholder_8"
  attr {
    key: "T"
    value {
      type: DT_FLOAT
    }
  }
  attr {
    key: "_class"
    value {
      list {
        s: "loc:@training/Adadelta/Variable"
      }
    }
  }
  attr {
    key: "use_locking"
    value {
      b: false
    }
  }
  attr {
    key: "validate_shape"
    value {
      b: true
    }
  }
}
node {
  name: "Placeholder_9"
  op: "Placeholder"
  attr {
    key: "dtype"
    value {
      type: DT_FLOAT
    }
  }
  attr {
    key: "shape"
    value {
      shape {
        dim {
          size: 100
        }
      }
    }
  }
}
node {
  name: "Assign_9"
  op: "Assign"
  input: "training/Adadelta/Variable_1"
  input: "Placeholder_9"
  attr {
    key: "T"
    value {
      type: DT_FLOAT
    }
  }
  attr {
    key: "_class"
    value {
      list {
        s: "loc:@training/Adadelta/Variable_1"
      }
    }
  }
  attr {
    key: "use_locking"
    value {
      b: false
    }
  }
  attr {
    key: "validate_shape"
    value {
      b: true
    }
  }
}
node {
  name: "Placeholder_10"
  op: "Placeholder"
  attr {
    key: "dtype"
    value {
      type: DT_FLOAT
    }
  }
  attr {
    key: "shape"
    value {
      shape {
        dim {
          size: 3600
        }
        dim {
          size: 128
        }
      }
    }
  }
}
node {
  name: "Assign_10"
  op: "Assign"
  input: "training/Adadelta/Variable_2"
  input: "Placeholder_10"
  attr {
    key: "T"
    value {
      type: DT_FLOAT
    }
  }
  attr {
    key: "_class"
    value {
      list {
        s: "loc:@training/Adadelta/Variable_2"
      }
    }
  }
  attr {
    key: "use_locking"
    value {
      b: false
    }
  }
  attr {
    key: "validate_shape"
    value {
      b: true
    }
  }
}
node {
  name: "Placeholder_11"
  op: "Placeholder"
  attr {
    key: "dtype"
    value {
      type: DT_FLOAT
    }
  }
  attr {
    key: "shape"
    value {
      shape {
        dim {
          size: 128
        }
      }
    }
  }
}
node {
  name: "Assign_11"
  op: "Assign"
  input: "training/Adadelta/Variable_3"
  input: "Placeholder_11"
  attr {
    key: "T"
    value {
      type: DT_FLOAT
    }
  }
  attr {
    key: "_class"
    value {
      list {
        s: "loc:@training/Adadelta/Variable_3"
      }
    }
  }
  attr {
    key: "use_locking"
    value {
      b: false
    }
  }
  attr {
    key: "validate_shape"
    value {
      b: true
    }
  }
}
node {
  name: "Placeholder_12"
  op: "Placeholder"
  attr {
    key: "dtype"
    value {
      type: DT_FLOAT
    }
  }
  attr {
    key: "shape"
    value {
      shape {
        dim {
          size: 128
        }
        dim {
          size: 64
        }
      }
    }
  }
}
node {
  name: "Assign_12"
  op: "Assign"
  input: "training/Adadelta/Variable_4"
  input: "Placeholder_12"
  attr {
    key: "T"
    value {
      type: DT_FLOAT
    }
  }
  attr {
    key: "_class"
    value {
      list {
        s: "loc:@training/Adadelta/Variable_4"
      }
    }
  }
  attr {
    key: "use_locking"
    value {
      b: false
    }
  }
  attr {
    key: "validate_shape"
    value {
      b: true
    }
  }
}
node {
  name: "Placeholder_13"
  op: "Placeholder"
  attr {
    key: "dtype"
    value {
      type: DT_FLOAT
    }
  }
  attr {
    key: "shape"
    value {
      shape {
        dim {
          size: 64
        }
      }
    }
  }
}
node {
  name: "Assign_13"
  op: "Assign"
  input: "training/Adadelta/Variable_5"
  input: "Placeholder_13"
  attr {
    key: "T"
    value {
      type: DT_FLOAT
    }
  }
  attr {
    key: "_class"
    value {
      list {
        s: "loc:@training/Adadelta/Variable_5"
      }
    }
  }
  attr {
    key: "use_locking"
    value {
      b: false
    }
  }
  attr {
    key: "validate_shape"
    value {
      b: true
    }
  }
}
node {
  name: "Placeholder_14"
  op: "Placeholder"
  attr {
    key: "dtype"
    value {
      type: DT_FLOAT
    }
  }
  attr {
    key: "shape"
    value {
      shape {
        dim {
          size: 64
        }
        dim {
          size: 4
        }
      }
    }
  }
}
node {
  name: "Assign_14"
  op: "Assign"
  input: "training/Adadelta/Variable_6"
  input: "Placeholder_14"
  attr {
    key: "T"
    value {
      type: DT_FLOAT
    }
  }
  attr {
    key: "_class"
    value {
      list {
        s: "loc:@training/Adadelta/Variable_6"
      }
    }
  }
  attr {
    key: "use_locking"
    value {
      b: false
    }
  }
  attr {
    key: "validate_shape"
    value {
      b: true
    }
  }
}
node {
  name: "Placeholder_15"
  op: "Placeholder"
  attr {
    key: "dtype"
    value {
      type: DT_FLOAT
    }
  }
  attr {
    key: "shape"
    value {
      shape {
        dim {
          size: 4
        }
      }
    }
  }
}
node {
  name: "Assign_15"
  op: "Assign"
  input: "training/Adadelta/Variable_7"
  input: "Placeholder_15"
  attr {
    key: "T"
    value {
      type: DT_FLOAT
    }
  }
  attr {
    key: "_class"
    value {
      list {
        s: "loc:@training/Adadelta/Variable_7"
      }
    }
  }
  attr {
    key: "use_locking"
    value {
      b: false
    }
  }
  attr {
    key: "validate_shape"
    value {
      b: true
    }
  }
}
node {
  name: "Placeholder_16"
  op: "Placeholder"
  attr {
    key: "dtype"
    value {
      type: DT_FLOAT
    }
  }
  attr {
    key: "shape"
    value {
      shape {
        dim {
          size: 2
        }
        dim {
          size: 2
        }
        dim {
          size: 1
        }
        dim {
          size: 100
        }
      }
    }
  }
}
node {
  name: "Assign_16"
  op: "Assign"
  input: "training/Adadelta/Variable_8"
  input: "Placeholder_16"
  attr {
    key: "T"
    value {
      type: DT_FLOAT
    }
  }
  attr {
    key: "_class"
    value {
      list {
        s: "loc:@training/Adadelta/Variable_8"
      }
    }
  }
  attr {
    key: "use_locking"
    value {
      b: false
    }
  }
  attr {
    key: "validate_shape"
    value {
      b: true
    }
  }
}
node {
  name: "Placeholder_17"
  op: "Placeholder"
  attr {
    key: "dtype"
    value {
      type: DT_FLOAT
    }
  }
  attr {
    key: "shape"
    value {
      shape {
        dim {
          size: 100
        }
      }
    }
  }
}
node {
  name: "Assign_17"
  op: "Assign"
  input: "training/Adadelta/Variable_9"
  input: "Placeholder_17"
  attr {
    key: "T"
    value {
      type: DT_FLOAT
    }
  }
  attr {
    key: "_class"
    value {
      list {
        s: "loc:@training/Adadelta/Variable_9"
      }
    }
  }
  attr {
    key: "use_locking"
    value {
      b: false
    }
  }
  attr {
    key: "validate_shape"
    value {
      b: true
    }
  }
}
node {
  name: "Placeholder_18"
  op: "Placeholder"
  attr {
    key: "dtype"
    value {
      type: DT_FLOAT
    }
  }
  attr {
    key: "shape"
    value {
      shape {
        dim {
          size: 3600
        }
        dim {
          size: 128
        }
      }
    }
  }
}
node {
  name: "Assign_18"
  op: "Assign"
  input: "training/Adadelta/Variable_10"
  input: "Placeholder_18"
  attr {
    key: "T"
    value {
      type: DT_FLOAT
    }
  }
  attr {
    key: "_class"
    value {
      list {
        s: "loc:@training/Adadelta/Variable_10"
      }
    }
  }
  attr {
    key: "use_locking"
    value {
      b: false
    }
  }
  attr {
    key: "validate_shape"
    value {
      b: true
    }
  }
}
node {
  name: "Placeholder_19"
  op: "Placeholder"
  attr {
    key: "dtype"
    value {
      type: DT_FLOAT
    }
  }
  attr {
    key: "shape"
    value {
      shape {
        dim {
          size: 128
        }
      }
    }
  }
}
node {
  name: "Assign_19"
  op: "Assign"
  input: "training/Adadelta/Variable_11"
  input: "Placeholder_19"
  attr {
    key: "T"
    value {
      type: DT_FLOAT
    }
  }
  attr {
    key: "_class"
    value {
      list {
        s: "loc:@training/Adadelta/Variable_11"
      }
    }
  }
  attr {
    key: "use_locking"
    value {
      b: false
    }
  }
  attr {
    key: "validate_shape"
    value {
      b: true
    }
  }
}
node {
  name: "Placeholder_20"
  op: "Placeholder"
  attr {
    key: "dtype"
    value {
      type: DT_FLOAT
    }
  }
  attr {
    key: "shape"
    value {
      shape {
        dim {
          size: 128
        }
        dim {
          size: 64
        }
      }
    }
  }
}
node {
  name: "Assign_20"
  op: "Assign"
  input: "training/Adadelta/Variable_12"
  input: "Placeholder_20"
  attr {
    key: "T"
    value {
      type: DT_FLOAT
    }
  }
  attr {
    key: "_class"
    value {
      list {
        s: "loc:@training/Adadelta/Variable_12"
      }
    }
  }
  attr {
    key: "use_locking"
    value {
      b: false
    }
  }
  attr {
    key: "validate_shape"
    value {
      b: true
    }
  }
}
node {
  name: "Placeholder_21"
  op: "Placeholder"
  attr {
    key: "dtype"
    value {
      type: DT_FLOAT
    }
  }
  attr {
    key: "shape"
    value {
      shape {
        dim {
          size: 64
        }
      }
    }
  }
}
node {
  name: "Assign_21"
  op: "Assign"
  input: "training/Adadelta/Variable_13"
  input: "Placeholder_21"
  attr {
    key: "T"
    value {
      type: DT_FLOAT
    }
  }
  attr {
    key: "_class"
    value {
      list {
        s: "loc:@training/Adadelta/Variable_13"
      }
    }
  }
  attr {
    key: "use_locking"
    value {
      b: false
    }
  }
  attr {
    key: "validate_shape"
    value {
      b: true
    }
  }
}
node {
  name: "Placeholder_22"
  op: "Placeholder"
  attr {
    key: "dtype"
    value {
      type: DT_FLOAT
    }
  }
  attr {
    key: "shape"
    value {
      shape {
        dim {
          size: 64
        }
        dim {
          size: 4
        }
      }
    }
  }
}
node {
  name: "Assign_22"
  op: "Assign"
  input: "training/Adadelta/Variable_14"
  input: "Placeholder_22"
  attr {
    key: "T"
    value {
      type: DT_FLOAT
    }
  }
  attr {
    key: "_class"
    value {
      list {
        s: "loc:@training/Adadelta/Variable_14"
      }
    }
  }
  attr {
    key: "use_locking"
    value {
      b: false
    }
  }
  attr {
    key: "validate_shape"
    value {
      b: true
    }
  }
}
node {
  name: "Placeholder_23"
  op: "Placeholder"
  attr {
    key: "dtype"
    value {
      type: DT_FLOAT
    }
  }
  attr {
    key: "shape"
    value {
      shape {
        dim {
          size: 4
        }
      }
    }
  }
}
node {
  name: "Assign_23"
  op: "Assign"
  input: "training/Adadelta/Variable_15"
  input: "Placeholder_23"
  attr {
    key: "T"
    value {
      type: DT_FLOAT
    }
  }
  attr {
    key: "_class"
    value {
      list {
        s: "loc:@training/Adadelta/Variable_15"
      }
    }
  }
  attr {
    key: "use_locking"
    value {
      b: false
    }
  }
  attr {
    key: "validate_shape"
    value {
      b: true
    }
  }
}
node {
  name: "output_node0"
  op: "Identity"
  input: "dense_3/Softmax"
  attr {
    key: "T"
    value {
      type: DT_FLOAT
    }
  }
}
versions {
  producer: 26
}
